checkpoints/t1_none_toytest.model (torch, 132319 bytes, 3 tensors)

embedding_user.weight f4 [2698, 8]
000000 d6 c4 2d be 1e bb aa bf d4 a6 99 3f 5c 12 43 3f
       -0.16969618 -1.3338354 1.2004037 0.7619989
000010 8c 42 1a bf 3e 4c 51 be d5 0a 4c bf d6 1f 17 bf
       -0.6025779 -0.2043924 -0.7970403 -0.5903295
000020 99 01 0e 3f 49 18 4a be b9 30 43 be b9 e2 00 3f
       0.5547119 -0.19735827 -0.19061555 0.5034595
000030 2e 17 52 3e 69 03 9a 3f a5 c4 1a c0 04 54 07 3f
       0.20516655 1.2032291 -2.4182522 0.5286257
000040 e8 43 2c 3f 3c 51 9c be 87 3c 19 c0 7f 69 56 3f
       0.67291117 -0.30530727 -2.3943193 0.83754724
000050 fe 2f 3f 3f c8 ea 1b 40 c6 e7 14 3d 21 1e c2 bf
       0.74682605 2.436205 0.03635385 -1.5165445
000060 21 8c 64 3f ea 64 48 3f 67 11 3d bf 91 e7 17 40
       0.8927632 0.7827898 -0.7385468 2.3735087
000070 33 f0 4a 3f 05 42 0e 40 f1 1e 12 be 54 46 d6 be
       0.79272765 2.2227795 -0.14269616 -0.4185053
000080 d5 7d 7a bf 2c 58 8f 3f 7d e0 8a be 1f dd bc 3e
       -0.97848254 1.1198783 -0.27124396 0.36887452
000090 5d 8f 34 bb 7d b3 85 bd 77 1f d2 bf 9e 91 95 3f
       -0.0027551271 -0.06528375 -1.6415852 1.1685064
0000a0 16 bb ae bf a2 03 55 3e 32 dc 37 bf d3 58 b3 3f
       -1.3650844 0.20802167 -0.71820366 1.4011482
0000b0 3d 9d a5 bf 89 12 ad bf b0 d1 b2 bf 85 b2 a1 3d
       -1.293861 -1.3521281 -1.3970242 0.07895378
0000c0 83 ad 61 bf 04 7b 49 be 91 52 80 3f 4c 86 4b bf
       -0.8815538 -0.19675833 1.0025197 -0.79501796
0000d0 92 82 83 3e 7e b9 3f 3e 9a cb 1d bd a6 8e 0a 3f
       0.25685555 0.18723103 -0.038524248 0.54123914
0000e0 db 02 d0 3e 12 a1 22 40 51 81 7b bf 3f 10 f5 3e
       0.4062718 2.541081 -0.98244196 0.47863957
0000f0 dc 3e 9f 3e fd af 1a 40 1a 8a 05 bf c1 57 c7 3e
       0.31102645 2.4169915 -0.5216385 0.38934138
000100 1c 20 38 3d 8c e5 63 3f a6 38 b8 3f 29 7e 63 3f
       0.044952497 0.89022136 1.4392288 0.8886438
000110 06 70 47 bf 18 63 2a 3f fd 57 f3 3d 12 31 9c be
       -0.7790531 0.66557455 0.11882017 -0.30506188
000120 9e c7 e0 bf 58 43 49 3e 77 3f d4 3f 76 2d 99 3f
       -1.7560918 0.19654596 1.6581868 1.1966999
000130 ba ec e0 bf 4e 30 96 bd 94 db 00 be 53 57 e9 bd
       -1.7572243 -0.07333432 -0.12583762 -0.11393609
000140 ee 0a d9 3e 51 6c f3 bd 2a f4 37 3f 6b 86 b8 3d
       0.4239115 -0.11885894 0.7185694 0.09010013
000150 05 44 d7 3e f6 55 58 bf 04 d3 11 c0 89 e0 06 bf
       0.42044082 -0.84506166 -2.2785044 -0.52686363
000160 4d c0 c9 bf 0b c1 6b 3e 66 c3 18 bf 81 71 e5 3e
       -1.576181 0.23022859 -0.59673154 0.4481316
000170 f9 14 2e 40 d4 e9 1b bd fc 13 d9 3e 14 46 20 3f
       2.72003 -0.038064793 0.4239806 0.6260693
000180 be d3 90 bd e0 61 c4 3f 1a 4b 9e 3f e9 90 58 3f
       -0.070716366 1.5342369 1.2366669 0.84596115
000190 d2 e2 b4 3f 4f dc f5 bd 31 41 49 bf 14 1f 16 3e
       1.413172 -0.12004911 -0.786151 0.14660293
0001a0 49 74 5a 3f b9 26 03 40 34 0a 19 bf 33 c6 35 40
       0.8533369 2.0492384 -0.59781194 2.8402221
0001b0 f8 02 e2 3f 6a 1a 21 bf 96 d6 df be 14 98 8d 3e
       1.7657156 -0.6293093 -0.43718404 0.2765509
0001c0 8c 3f 4a bf 11 52 4e 3f 9a 79 21 bf f7 4c 31 3d
       -0.79003215 0.80593973 -0.63076174 0.04328629
0001d0 de 1f a8 3f 3f eb b9 3f 18 ec 90 3e b9 25 83 3f
       1.3134725 1.4524916 0.28305125 1.0245887
0001e0 a2 12 42 bf 08 3e da 3e 55 4d 44 40 d4 be b5 3d
       -0.7580968 0.4262545 3.06722 0.08874288
0001f0 6c 17 87 3f 6b dc 8b 3e 11 89 b9 be 14 9f 21 3f
       1.0554023 0.27316603 -0.36237386 0.6313336
000200 b1 e9 f2 be 54 41 96 be e5 eb 58 bf d5 8c 22 3f
       -0.47443917 -0.29346716 -0.84734946 0.6349614
000210 80 a3 c1 3f 40 94 b1 bd 85 59 13 c0 d5 e0 cb 3f
       1.5128021 -0.086708546 -2.3023388 1.5927988
000220 2b 6e 8f 3e d3 8d a4 3f 29 29 80 be 5a 64 68 3f
       0.2801374 1.2855781 -0.25031403 0.90778124
000230 3a 49 9a 3d a8 1f 8c bf e1 5b 29 bf 38 56 88 3f
       0.07533498 -1.0947161 -0.6615582 1.0651312
000240 60 94 f2 3e 55 85 aa 3f 97 9d 93 be 41 aa c9 3f
       0.47378826 1.332194 -0.2883117 1.5755082
000250 04 a7 ed 3e 23 5a 62 be 2c 3b f7 bf 05 b8 79 bf
       0.46416485 -0.22104697 -1.9314933 -0.97546417
000260 72 d0 06 c0 bd b8 d9 3e 8f 3d 1f bf fa e8 7b 3e
       -2.1064725 0.42523757 -0.62203306 0.24600592
000270 68 51 88 be a0 ac 56 bf 6f 00 eb bf bb 40 91 3f
       -0.26624608 -0.83857155 -1.8359507 1.1347879
000280 a9 14 ca 3f 46 7b eb be 48 1f a0 3d a9 77 48 be
       1.5787555 -0.45992488 0.078184664 -0.19576897
000290 34 b8 fb 3e aa 3b 09 3f ae 59 df bf 84 f8 04 40
       0.49163973 0.53606665 -1.7449243 2.0776682
0002a0 f2 32 13 bc d4 9f 40 bf ef 25 f9 bf 2c 70 1e 3f
       -0.008984314 -0.7524388 -1.9464701 0.6188991
0002b0 a9 a4 fc 3f e1 41 4d 3f b3 da e1 3e 49 ab d2 bf
       1.973775 0.8017865 0.44112167 -1.6458522
0002c0 59 7f c0 bf e5 d9 b5 be 3e 75 12 be 20 84 2d 3f
       -1.5038863 -0.35517803 -0.14302537 0.6777973
0002d0 6b 54 9d 3f 71 1f e1 3e 66 26 6d 3f c4 0e eb 3d
       1.2291387 0.439693 0.92636716 0.11477426
0002e0 69 6e 54 bf d5 8c fe be 8f 27 22 40 d0 d2 f1 3e
       -0.8298097 -0.4971682 2.5336645 0.4723115
0002f0 4c d6 a4 bd 96 ab 13 be 3d cc 05 c0 5d 43 a6 be
       -0.080486864 -0.14420924 -2.0905907 -0.3247327
000300 5f 0c 70 bc 54 4e 20 3f ba 1f 1c c0 0d 6b 6a 3f
       -0.014651387 0.6261952 -2.4394364 0.91569597
000310 89 1f 7b bf cc c4 c7 3f 26 ee 08 be 9e 63 fc 3d
       -0.98094994 1.5606933 -0.13372096 0.12323688
000320 de c8 c7 be e6 2c 5f ba 84 25 c3 bd f9 35 be 3f
       -0.39020437 -0.0008513465 -0.0952864 1.4860221
000330 58 7f 96 3f 45 2b 94 bf 06 4c a4 bf a7 31 c2 bf
       1.1757612 -1.1575705 -1.28357 -1.5171403
000340 ce bd b1 be 41 54 b2 3f d0 59 7f 3f 1d 51 eb 3c
       -0.34715122 1.3931962 0.9974642 0.028725201
000350 cd 0e 20 3e d6 5e ba bf a3 97 11 bf 40 7c e5 be
       0.15630646 -1.4560192 -0.56872004 -0.44821358
000360 86 d0 9a bf ad e1 c7 3f fb 73 9e bb ae 75 cb 3e
       -1.2094886 1.5615746 -0.0048356033 0.3973822
000370 19 2c 26 3f 36 71 80 be 00 ee c8 bf aa 77 1b c0
       0.6491104 -0.25086373 -1.5697632 -2.4291787
000380 26 bf ab 3f 59 6b 8b bf 82 52 73 bf 6a ad 79 3f
       1.3417709 -1.0892135 -0.9504777 0.97530234
000390 82 0a 9c 3e e4 8b 5a bf 77 40 85 bf 7b 9c 3c 3f
       0.30476767 -0.85369706 -1.0410298 0.7367627
0003a0 cc 5c 1b bf 5d 9a 38 be 18 a6 e5 be a0 87 8d bf
       -0.6068847 -0.18027635 -0.44853282 -1.1057014
0003b0 a8 bd 6a 3e 0e 78 bc 3d 20 44 0a c0 e8 bf 9e 3f
       0.2292391 0.09202586 -2.160408 1.2402315
0003c0 28 5d 5a 3f 21 9f 6c 3f 49 42 98 bd f4 ee 22 3f
       0.85298395 0.9243031 -0.07434518 0.63645864
0003d0 b1 07 53 3f d8 33 a6 3f 1b e6 8d bf fc 8a 8a bf
       0.8243361 1.2984571 -1.1085848 -1.0823665
0003e0 6a 52 4c 3f 5e 8b d0 bd e6 26 78 3f aa d7 a4 3d
       0.79813254 -0.10182832 0.96934354 0.08048947
0003f0 64 cb 21 be e7 c5 6c 3f 0a 53 8f bf a4 3f a2 be
       -0.15800244 0.92489475 -1.1197217 -0.3168918

embedding_item.weight f4 [1386, 8]
000000 92 b7 f2 be 1c f7 91 bf 77 62 e5 bf 76 fb 61 3f
       -0.47405678 -1.1403537 -1.7920674 0.88274324
000010 97 69 82 3e a5 44 b8 3f fe 10 51 3e fb 07 96 3f
       0.25471184 1.4395949 0.20416638 1.1721185
000020 75 9a 94 3f 6c b2 62 c0 02 b1 79 3f 80 10 89 3f
       1.1609637 -3.54214 0.9753572 1.070816
000030 b6 9e 15 be 79 f4 36 40 12 dc f3 3e db 87 0f 3f
       -0.14611325 2.8586714 0.47628838 0.56066674
000040 1a 92 bd bf 03 8b 59 bf 4d 65 1d 3e 3a b7 c9 be
       -1.4810212 -0.8497774 0.15370674 -0.39397603
000050 85 a1 9f 3f 9d 03 9f 3f e9 62 e9 be c1 b6 34 3e
       1.2471167 1.2422978 -0.45583275 0.1764784
000060 1f 8c cf 3e 11 0d 66 3e 21 e5 71 bf 25 e5 ed 3e
       0.4053659 0.22465922 -0.9449025 0.46463886
000070 d6 a7 70 be 07 88 3b 3f 55 49 aa 3d c4 49 22 3f
       -0.23501524 0.73254436 0.08314768 0.6339381
000080 e4 d3 9f 3e 5b 72 f8 3f 21 55 a2 3f 0b 10 a1 3f
       0.31216347 1.9409899 1.2682229 1.2583021
000090 2c 28 e9 bf d8 e1 e3 be a5 91 2c 40 39 ff 7b 3f
       -1.8215384 -0.44508243 2.6963894 0.98436314
0000a0 a1 e6 22 40 05 20 bd 3f 81 ce 5e c0 bc 34 47 3f
       2.5453265 1.4775397 -3.481354 0.7781484
0000b0 e0 85 9e 3f 86 54 1e bf f5 3f 54 3f 1d f1 dc 3e
       1.2384605 -0.6184772 0.8291009 0.43152705
0000c0 70 fd 33 3f fd 2d 01 c0 b9 8a e0 bd 9b 1e ad bf
       0.7030859 -2.018432 -0.10963959 -1.3524965
0000d0 82 e7 09 c0 0d 59 f9 3f 60 15 88 bf 94 7c 17 40
       -2.154755 1.9480301 -1.0631523 2.3669786
0000e0 c1 6e 3f 3f 9f a1 88 3f eb 07 69 3f ef 7a 40 bd
       0.7477837 1.0674323 0.91027707 -0.04699224
0000f0 31 35 4f bf 48 c1 b3 be ce 87 ef 3d 4d 74 c2 be
       -0.8094054 -0.351084 0.116958246 -0.37979355
000100 3d 40 d4 3f ae d2 ae 3f e5 83 05 c0 dc 35 bd 3f
       1.6582104 1.3658044 -2.0861752 1.4782062
000110 99 09 c4 3f 87 80 99 be 00 86 8b 3f 2c 21 02 3f
       1.5315429 -0.2998087 1.0900269 0.50831866
000120 4c cd 15 40 0b 42 2e 40 dc 6f 0d c0 f5 05 9c 3f
       2.3406553 2.722781 -2.2099524 1.2189318
000130 a4 49 fa 3f f7 1f 28 3f 2f ec 9f 3f c2 1e 95 3f
       1.9553723 0.65673774 1.2493953 1.1650012
000140 7b 30 19 be 04 30 70 3f 6e 4f 3d c0 85 e5 1a bf
       -0.149599 0.93823266 -2.957973 -0.6050647
000150 bc 15 83 bf 8a 87 87 3d 8c 8a fd 3f fe eb 37 bf
       -1.0241008 0.06617649 1.9807906 -0.7184447
000160 5e 8e b0 3f ef 55 a4 bf d9 28 6f bf c6 d4 1d 3e
       1.3793447 -1.2838725 -0.93421704 0.15413198
000170 03 c1 2e c0 f8 ef dd bf bd 20 87 3f 08 2c 92 bf
       -2.7305305 -1.7338858 1.0556866 -1.1419687
000180 6c b7 44 3f 74 e7 2a 40 18 5d 64 3d b0 06 70 3e
       0.7684238 2.6703768 0.055752844 0.23440051
000190 e3 a2 01 c0 40 2d c7 3f 24 b6 67 40 7c 0e 18 c0
       -2.0255668 1.5560684 3.620492 -2.375884
0001a0 0c 8d 4f bf d7 2b 31 3e f1 dd ef 3f 9f eb e7 3e
       -0.81074595 0.1730188 1.8739606 0.45296952
0001b0 08 31 7f bd 49 a4 d4 3c 79 28 8a bf b2 01 32 bf
       -0.06230262 0.025957244 -1.0793601 -0.69533837
0001c0 16 db d2 be 36 94 a9 3f 9b 7a a5 3d dd 31 10 c0
       -0.41182774 1.3248355 0.08080026 -2.2530434
0001d0 15 d0 09 c0 5e 26 5a 3f 3f 4f 8b bf b8 a6 3a bf
       -2.1533253 0.85214794 -1.0883559 -0.7291064
0001e0 5c c3 65 3f 2e 67 53 be 1c 4a 3f bf 8f bb a6 bd
       0.8975122 -0.20644829 -0.74722457 -0.08141243
0001f0 f3 03 6a bf 5a fc 95 bf df aa 04 3f a4 f7 bf 3f
       -0.91412276 -1.1717637 0.5182323 1.4997449
000200 2f 36 02 bf 1c 17 82 bd cf b3 02 3f a1 21 95 bf
       -0.5086393 -0.06352064 0.51055616 -1.1650888
000210 d9 15 53 be 64 0f d3 be 1d 7f 08 3f 3c 30 f5 3f
       -0.20613803 -0.4122268 0.5331896 1.9155345
000220 51 8a 1c c0 67 24 7b bf b3 09 a6 bf 12 b3 90 40
       -2.4459422 -0.9810242 -1.297171 4.521859
000230 17 8b 1a c0 45 17 75 3d 35 e6 87 3d 74 b8 ce bd
       -2.4147394 0.059836645 0.066357054 -0.100937754
000240 a0 38 0f 3e df 71 60 bf 51 9c 7c 3f 28 fe 52 be
       0.13986444 -0.87673753 0.9867602 -0.20604765
000250 62 88 92 bf a7 13 75 3e 0f 74 56 3f ef c5 10 bf
       -1.1447871 0.23933278 0.8377084 -0.5655202
000260 31 d8 f4 3f 76 6f ca bd b8 92 c9 bf 52 47 eb 3f
       1.9128476 -0.09884541 -1.57479 1.838114
000270 57 58 0e 40 45 ad 89 bf 72 c0 c7 3f ea 5f 51 3e
       2.2241418 -1.0756003 1.5605605 0.20446745
000280 b4 98 2e bd 74 03 11 3e 5c 2f 67 3f fd db a4 bf
       -0.042626098 0.14161474 0.9030664 -1.2879635
000290 2c 7e bd be df df 66 3f 1c 47 9a 3e 05 43 9e 3f
       -0.37010324 0.9018535 0.30132377 1.2364203
0002a0 08 07 32 40 2a a5 08 c0 4f 4d 80 bd ed 50 42 3f
       2.7816792 -2.1350808 -0.062647454 0.7590473
0002b0 24 fb 24 c0 f6 f5 a6 bf 3e 5d 24 3f 7a 43 a2 bf
       -2.5778284 -1.3043811 0.64204776 -1.2676842
0002c0 3d 58 2b 40 2a d9 e4 bf 83 d2 22 bf d6 e4 e5 3f
       2.6772606 -1.7878773 -0.63602465 1.796046
0002d0 2d aa 51 bf 80 22 48 40 e8 1c 56 3e b3 e3 a1 3e
       -0.8190029 3.1271057 0.20909464 0.31619033
0002e0 7d 23 0e 3f 5c c4 24 40 9f cc 0c 40 84 ac 5c 3f
       0.555229 2.5744848 2.199989 0.8620074
0002f0 f4 de 13 c0 f1 0f 30 3f 7d bc 19 40 5b 19 05 40
       -2.310483 0.68774325 2.4021294 2.0796726
000300 b3 b2 1a bd 9c 88 0a bf 05 67 39 bd 06 53 04 3f
       -0.037768077 -0.541147 -0.045264263 0.51689184
000310 f2 af 52 3e eb 4d b7 bf c2 3b da 3d 0e 5d 95 bf
       0.2057493 -1.4320654 0.10655929 -1.1669023
000320 1f a9 d1 be 36 a1 7c 3f 57 32 03 3f 91 92 54 be
       -0.40949342 0.9868349 0.5124869 -0.20759036
000330 73 38 ac 3e 92 30 c4 3e 46 8a 05 be dc f4 2b 3f
       0.33636817 0.38318306 -0.13041028 0.671705
000340 47 2d 0b c0 83 68 d2 3e e2 34 1b 40 9e 3b 0c 40
       -2.1746385 0.4109536 2.4251027 2.1911387
000350 dc 2e 19 40 8b 07 e0 bf fb a7 ee 3f 8a b4 9c bf
       2.393485 -1.7502302 1.8645014 -1.2242596
000360 a7 29 dd be 94 d3 7d 3f 97 c6 9b 3f 68 fa b8 bf
       -0.4319584 0.9915097 1.216998 -1.4451418
000370 86 49 70 be 58 5d de bf 78 43 a2 be 09 03 15 3f
       -0.23465547 -1.7372236 -0.316921 0.58207756
000380 94 a5 b7 3f 87 04 0e 3f 1d 8a ca be 7b 85 a6 3f
       1.4347405 0.5547566 -0.39558497 1.3009485
000390 59 f8 5b 3e 5e fe 38 bf 65 c7 91 3f 73 9c fc bc
       0.21481456 -0.72263134 1.1388975 -0.03083632
0003a0 aa c4 0d bf 1d a4 0c bf b7 5f ba 3f db cb f8 3c
       -0.5537821 -0.54937917 1.456046 0.030370643
0003b0 f3 b3 a8 3d 94 cd eb bf 1e 63 89 bd a0 c6 4d 3f
       0.082374476 -1.8422112 -0.06708358 0.803812
0003c0 a1 97 03 3f 77 f4 f6 be 15 aa 94 3f 7e e0 1f bf
       0.5140324 -0.48233387 1.1614405 -0.6245192
0003d0 ea d0 0b c0 4b 03 14 3e b1 ef 20 3f 64 4e 20 bf
       -2.184626 0.14454381 0.6286574 -0.62619615
0003e0 d8 ab 79 bf 5e 70 e7 3f 1e 92 0b c0 12 38 f9 3f
       -0.9752784 1.8081167 -2.1807933 1.9470236
0003f0 a8 1a a6 3f c4 00 c0 3f d1 94 5f 40 0a 55 40 3f
       1.2976885 1.5000234 3.493458 0.7512976

affine_output.weight f4 [1, 8]
000000 ec 8b 9a bf c8 8d 8c 3f 9c e2 81 bf 9b 11 a8 3f
       -1.2073951 1.0980768 -1.0147281 1.3130373
000010 22 07 8d bf d5 5c 93 3f cd 62 b3 bf dd 3e 89 3f
       -1.1017802 1.1512705 -1.4014527 1.0722309
