checkpoints/t1_none_toytest.model (torch, 132319 bytes, 3 tensors)

embedding_user.weight f4 [2698, 8]
00000000: 794a 953f 25de a5bf f616 aa3f 5c62 793f
00000010: cc78 b6bf 4186 8cbf ab6f d0bc a23f eebd
00000020: 1f2d 18be 3e96 cabe 610e cdbe 527d 62bb
00000030: 1176 0c3d 5ab8 85be f39b 7cbf d8a6 b43e
00000040: d6a6 ad3e 98e6 703e fac5 d1bf cf2d 793f
00000050: ca91 823e eb99 d43f afca 2cc0 5b71 4bbe
00000060: 82e2 0a40 3407 963f bc09 08bf ffdf 9dbe
00000070: 681b 26bf cb5e 853e 7689 05be 7b00 c9be
00000080: d27b a23d 8d86 e23f 5720 dc3d 1113 c53e
00000090: e09e b33f d689 c8be d49a 89bf 1e47 ff3d
000000a0: ac79 543d 1343 be3d 780e 5c3f 5a9f 883f
000000b0: 66eb b9bf 65a2 213f 2074 dabf 8764 8a3f
000000c0: 2aae 9f3f 766b 37bf 7939 b23f f8b2 403f
000000d0: a934 813e eef0 dfbe 9021 84bd c203 3abd
000000e0: cf5d b83f 4bf1 1340 2bb2 b1be 9035 cc3f
000000f0: e091 34bf 421d 883f c64a bcbf 327c 873e
00000100: 68fe 1a40 3fd4 363f f91b 4b3f cf14 9d3e
00000110: d3fd f53d 4681 fe3c eee6 38bf b5c7 443f
00000120: 7726 243f c8e6 cd3d 6c5c b53f 8e31 05bc
00000130: 2906 edbe 207f 163e b958 c4be c7e9 223c
00000140: 1c54 0bc0 c3dd 8bbf c133 3a3e 545e 693f
00000150: b925 8a3f 285b aabf 776d 10bf fdb0 7c3f
00000160: a51a 433f 7b7a 6ebe 9516 783f d7ca 423f
00000170: 1290 bb3f 7a4b 3c3f 76b1 50bf 29fc 793f
00000180: 298f 0dbe 3855 e9bd 698f cebe d132 cf3d
00000190: df00 a53f 52e9 16bf 00ab babf 1ed8 01be
000001a0: 4d44 1440 07d9 903d 4583 15be 3f35 37bf
000001b0: 745f 483f 27d6 1ebf 5176 d9bf 218b 8ebd
000001c0: 1a18 513f 9116 ec3e bc46 22bf f6c2 4e3f
000001d0: 8663 3c3f 6287 9a3f e9ce e43e 6306 36be
000001e0: 4abe 6ebf e40e 683f 9c7b 133f 369c 913e
000001f0: 8a79 3b40 db00 42bf fc89 89be 0e86 183e
00000200: 6f19 9fbf b84a a73e 7581 b2bf 8b0c b13f
00000210: 9d3a 823f 9b80 05bf 1705 adbf 476c 7cbf
00000220: 29af b0bf 0a18 fa3e 105d 963c c3c9 b63f
00000230: c99d b0bf 00a5 09bf c70f a6bf b0c9 203f
00000240: 69b1 263e c8a5 b43f 1659 0c3f 8bb3 1f3f
00000250: 0659 f23e d5e6 c03e 1e33 53bf 5d52 c2bf
00000260: ceae ab3f 3c79 3f3f 86de 07be c4cc 6ebf
00000270: 663e dabe 7a1f 4d3f a867 2bbf e07a 9dbe
00000280: f27b e1be 1d2b 75bd 3e06 4cbf ee99 c23f
00000290: 98dd ad3e 68d8 913f 33b6 02bf 5a97 b63d
000002a0: aef5 db3f 56e0 2cbf 2578 913f 1fa2 f83f
000002b0: 9437 e63f 29a3 a53f b69b 2e3f 0d89 a8bf
000002c0: 0523 173f 34c5 04bf ae70 a23f c3e3 d2be
000002d0: 8e39 a03f 2d05 893f 12fc 1c3f b817 f0be
000002e0: 292a d3bd ba53 cf3e b630 3740 0fb0 d0bf
000002f0: 0040 b13f 16ea 82bf 51fa 4cbf 891b 6dbf
00000300: 6327 fcbe 7354 60bd 3974 27be 7e77 b53f
00000310: 4202 e2bf 9787 c43e f198 253e 760f 3b3e
00000320: 346d 5abf c363 38bf 3f1f 9a3e ff7d ca3f
00000330: 8c8e 9c3f ef00 07be 1beb b2bf a6be 35c0
00000340: 457c 033f 173b 71be b132 36be a85e 863f
00000350: c518 6f3e a290 debf 7de4 d6be a1da 09c0
00000360: 524d 193f fd15 8b3f f37d 543f 0288 29bf
00000370: 1463 1c3f da43 d53e 9ddc ccbf 8824 8dbf
00000380: 5d4f 5dbe f0fc bfbf 522c a0be e32d 88be
00000390: ba82 df3e 9169 8abc b64c 7f3f 6f7f 97be
000003a0: dd88 0ac0 ef2f 12c0 b6d7 27bf 2ecc 1a40
000003b0: 2aac db3e 18ba 36be 1a74 f2bf 549e 783e
000003c0: 461b f8bf 4e0d 67bf d851 963e dbdd 7b3f
000003d0: e8f0 643f b945 853f 7fde 34bf 286e a83e
000003e0: edaf 603f f798 043f 6a3a 8e3e e1eb 183f
000003f0: 9bfd 1a3f 26e3 0a40 cb65 cabf 9e48 cbbb
1.1663352 -1.2958418 1.3288257 0.9741571 -1.4255614 -1.0978471 -0.025443872 -0.11633231
-0.14860962 -0.3956775 -0.40050033 -0.003455956 0.034292284 -0.26117212 -0.9867546 0.35283542
0.33916348 0.23525465 -1.6388543 0.97335523 0.25501853 1.6609472 -2.6998708 -0.1986746
2.170075 1.1720948 -0.53139853 -0.30834958 -0.6488557 0.26048884 -0.13040718 -0.3925818
0.07933773 1.7697312 0.10748356 0.3849111 1.403286 -0.3916766 -1.0750375 0.124647364
0.051873848 0.09290137 0.8595958 1.067363 -1.4524963 0.6313842 -1.7066689 1.0811929
1.2475026 -0.7164835 1.3923789 0.75273085 0.2523549 -0.43738502 -0.06451714 -0.04541374
1.4403628 2.3116024 -0.34706244 1.5953846 -0.7053509 1.0633929 -1.4710319 0.2646194
2.4217777 0.7141761 0.7933956 0.30679938 0.12011304 0.031067502 -0.7222737 0.7686723
0.6412119 0.10053784 1.416883 -0.008129491 -0.46293762 0.14696932 -0.3834894 0.009943432
-2.1770086 -1.0927051 0.18183805 0.9115956 1.0792762 -1.3309069 -0.5641703 0.9870756
0.7621253 -0.2328891 0.9690946 0.7609076 1.4653342 0.7355267 -0.81520784 0.9765039
-0.13824143 -0.11393207 -0.40343788 0.10117114 1.2890891 -0.5894977 -1.4583435 -0.12680098
2.3166687 0.07072645 -0.14600857 -0.7156562 0.7827065 -0.6204552 -1.6989232 -0.069601305
0.816774 0.46110967 -0.6338918 0.80766237 0.7358936 1.2072566 0.4468911 -0.17775874
-0.9325911 0.9064772 0.5761049 0.28439492 2.9292932 -0.75782555 -0.26863086 0.14894888
-1.2429637 0.32674193 -1.3945757 1.3831953 1.0174137 -0.5214936 -1.3517178 -0.9860272
-1.3803455 0.48846465 0.018354923 1.4280323 -1.3798152 -0.53767395 -1.2973565 0.6280775
0.16278614 1.4113092 0.54823434 0.62383336 0.47333544 0.3767611 -0.82499874 -1.5181385
1.3412721 0.74794364 -0.1326848 -0.932812 -0.4262573 0.80126154 -0.6695504 -0.3075781
-0.44039875 -0.05985557 -0.79697025 1.5203226 0.33958125 1.1394167 -0.51059264 0.08915587
1.718435 -0.6752981 1.136479 1.9424475 1.7985711 1.2940418 0.68206346 -1.3166825
0.5903781 -0.5186341 1.2690637 -0.41189393 1.2517564 1.0704705 0.6132213 -0.46893096
-0.10310776 0.40493566 2.862348 -1.6303729 1.3847656 -1.0227687 -0.8006945 -0.9262014
-0.492488 -0.054768037 -0.16352929 1.4177091 -1.7656939 0.38384697 0.16171624 0.18267617
-0.8532288 -0.72027224 0.30101964 1.5819701 1.2231002 -0.1318395 -1.3977998 -2.8397613
0.51361495 -0.23557697 -0.17792775 1.0497637 0.23349293 -1.7387888 -0.41971198 -2.153969
0.59883606 1.0866085 0.83004683 -0.66223156 0.6108868 0.4165333 -1.6004826 -1.1026773
-0.21612306 -1.4999065 -0.31283814 -0.2659751 0.43654424 -0.016896041 0.99726427 -0.29589412
-2.1646035 -2.2841756 -0.65563524 2.4187121 0.42904788 -0.17844427 -1.8941681 0.24279147
-1.9383323 -0.90254676 0.29359317 0.983854 0.89430094 1.0411903 -0.70652 0.32896543
0.8776844 0.51795906 0.2777894 0.5973492 0.6054322 2.170114 -1.5812315 -0.006203725

embedding_item.weight f4 [1386, 8]
00000000: 04d2 5d3f cc93 f1bf 0ea7 e5bf 171e dd3f
00000010: 6514 5b3d b936 4e3f 26f3 183f 95cc 173d
00000020: aa3d c63f a88e 05c0 9c70 d53f a48b 87be
00000030: b89d 683e a77f 3340 5bfc c33f 5219 b43f
00000040: 7d90 27bf 4b24 c3bd a2bd 813f fdfc 1a3f
00000050: 5d4d d83f ac7a 9c3f 0810 243f fc90 a33f
00000060: 350d 4d3f c61b f53e cd47 f4be f3f9 b63f
00000070: 8f3c c23f 1219 9d3f 62b0 8fbf ab2a 4a3e
00000080: 94f2 c9bf d3eb 5fbf 4617 233f b404 2ac0
00000090: 978b cabf 7223 963c 18a9 1940 1849 1740
000000a0: 4c63 3540 d4d4 2b3f 0735 20c0 9bdf fd3f
000000b0: 637c e33e 35af 90bf 3fd6 803f 1516 d83f
000000c0: cbca f83f eae6 66bf 86d1 72bf bdaf babf
000000d0: dd85 7dbf 3e16 0e3f 36c0 f6bf df5f f53f
000000e0: 2380 a23f 39d3 7f3d 608b 963f 3c76 21bf
000000f0: 7f85 f4be 156c 833f 1fad 10bf 4300 c7be
00000100: 7f66 5440 3fc0 a13f 231a 37c0 b212 3040
00000110: 2a6e e73f 0f56 72bf 2930 773f 8940 dd3f
00000120: f75e 4140 1c7a e43f c216 23c0 1b74 5040
00000130: 1b12 f73f 64ca f83c 0c49 6f3f 0d14 8c3f
00000140: 87cc c6bf 8be4 d33f 9a33 32c0 2b48 e9bf
00000150: 5353 d5bf 3b11 45bf cd9b 643f 16b0 963f
00000160: e52a d5bd c1e6 15c0 d8f1 48c0 1c68 cebf
00000170: 2f63 c9be fcfa 54bf 1271 243f 01fe 7e3e
00000180: a32e cb3f febd 0d3f 9527 4cbf fe7f b9bf
00000190: c909 28c0 ccde 3f3f e527 3940 ea2f 22c0
000001a0: 92f5 773c 11eb 17bf 3bf4 c23f 1b3b 733f
000001b0: 0304 a0be 1acd 4dbf 586a 783e 447e b0be
000001c0: c28d 9dbe 7765 d43f 13cf f63d f034 f33e
000001d0: befd 72c0 3121 793c 94de 03c0 49c7 c1bf
000001e0: ed0f 1e3f 3993 1b3e b43b 67be dd9d 3b3f
000001f0: 8570 a1bf e44a 4dbf 93f9 95bf 8206 0c3f
00000200: 1717 2fbf f955 42be ea28 023f 662b c93e
00000210: d075 12bf b63e 9dbf fb66 8c3e 2368 76be
00000220: 07e8 3abf 073c 23c0 e8c6 c5bf a715 02c0
00000230: 6cd3 d3bf 009e d9be 93c3 cc3f 80ea e2bf
00000240: fe02 f23e c3a1 243f 01e5 a33e 3f29 0840
00000250: 1192 c1be ffc8 113c bab0 283f 2612 25bf
00000260: 9e68 0540 b25a 99bd c4ba 01c0 d5e2 c23f
00000270: 22db e83e ef5d a0bf 08b1 923f 13f0 7c3f
00000280: 050f 8cbe 87d8 463f 4a23 793f 1919 36bf
00000290: e89f 50bf 9be3 353f 2e0e 223e ed7a 923f
000002a0: d9f3 dd3f 3a01 18c0 1048 ecbf 53eb c8bf
000002b0: 8fa6 82be 9924 0bbf 9bfd e4bd 0a71 2fbc
000002c0: da30 0740 a85e e8bf beb1 00bf 2db8 13c0
000002d0: 4688 5a3e 2799 6440 b0b3 113e d64b 21c0
000002e0: 3b99 ccbf 50ce 85bf 54a8 af3f b7ea 1cc0
000002f0: 7480 25c0 8568 a5bd 6aef 1440 9f6d 2840
00000300: dc08 20be 1c1c 063f af10 9abe ac66 0640
00000310: 9b7e 8f3e f31d c7be 42a4 0ebd db57 c3bf
00000320: 516f 8bbe 502f d73f db3f b7bd b9e9 923e
00000330: cc27 0d40 0ff5 b0be c40f 1fbe e1a7 b5be
00000340: a440 44bf ccb5 933f c26a 603f e7a2 8cbf
00000350: 099b 2640 ea90 babf 780f 0140 1663 75bf
00000360: 395f 06bf dcf7 eebf 7557 983f 4a90 cb3e
00000370: 7a65 95be 081f cfbf 9085 c0be ce69 b0be
00000380: c0c3 fe3f 5a6e 6d3f 1c3a b03e d432 ad3f
00000390: 9fc6 643d 58c5 44bf 95fe c13f 789f fdbf
000003a0: 3f07 17bf 6d7c 7fbf 926e ce3f 806f ecbe
000003b0: a05a 1bbe cdf4 f2be 94fe b2bf 40af b23e
000003c0: 0c4f 36bf 4d5b b6be c937 2140 f28b 02c0
000003d0: 677f d9bf 6c4e 333f 394c cfbf 926c 55bf
000003e0: 9cfa 3bbe 331b 823e 778b c7bf c74b 6ac0
000003f0: 0e34 aabe 590d 5d3f 0a12 7740 9b05 c7bf
0.86648583 -1.8873229 -1.7941606 1.7274808 0.053486247 0.8055225 0.59746015 0.03706034
1.5487568 -2.086832 1.6674991 -0.26473725 0.22716415 2.8046663 1.5311388 1.4070227
-0.65454847 -0.09528407 1.0135996 0.6054228 1.6898609 1.2224936 0.6408696 1.2778621
0.8009828 0.47872752 -0.4771103 1.4295028 1.5174731 1.2273276 -1.1225703 0.19742839
-1.5777154 -0.87469214 0.6370739 -2.656537 -1.582385 0.018327449 2.4009457 2.3638363
2.8341856 0.67121625 -2.5032365 1.9833864 0.44430837 -1.1303469 1.0065383 1.6881739
1.9436888 -0.90196097 -0.9485096 -1.4584881 -0.99032384 0.5550269 -1.9277408 1.9169883
1.2695354 0.062457297 1.1761284 -0.63071036 -0.477581 1.0267359 -0.5651416 -0.38867387
3.3187559 1.2636794 -2.8609703 2.751141 1.8080494 -0.94662565 0.9655786 1.728532
3.0214212 1.7849765 -2.548264 3.2570865 1.93024 0.030369945 0.93470836 1.0943619
-1.5531167 1.6554121 -2.7843995 -1.8225149 -1.6666054 -0.76979417 0.89300233 1.1772487
-0.10408572 -2.342209 -3.139761 -1.6125522 -0.39333484 -0.8319547 0.6423503 0.24901582
1.5873607 0.5536803 -0.797479 -1.4492185 -2.6255972 0.74949336 2.89306 -2.5341744
0.015134232 -0.5934306 1.5230783 0.9501206 -0.3125306 -0.80391085 0.24259317 -0.34471333
-0.30772215 1.6593465 0.12051215 0.47501326 -3.7967372 0.015205667 -2.06046 -1.5138942
0.6174305 0.1519288 -0.22581369 0.73287755 -1.2612463 -0.801924 -1.1716789 0.5469743
-0.6839461 -0.18978108 0.5084368 0.39290923 -0.5721102 -1.2284763 0.27422318 -0.24063163
-0.73010296 -2.5505388 -1.5451326 -2.0325716 -1.6548896 -0.42503357 1.5997185 -1.7727814
0.47267908 0.6430933 0.32010654 2.1275175 -0.37806752 0.008898019 0.65894663 -0.6448082
2.0845103 -0.07488002 -2.0270243 1.5225474 0.45479685 -1.2528666 1.1460276 0.98803824
-0.2735521 0.77674145 0.9731947 -0.71132046 -0.81494 0.71050423 0.15825722 1.1443764
1.7340041 -2.3750749 -1.8459492 -1.5696815 -0.255177 -0.5435272 -0.11181184 -0.010708103
2.1123567 -1.8153887 -0.50271213 -2.3081162 0.21341047 3.5718477 0.14228702 -2.5202537
-1.5984262 -1.0453587 1.3723245 -2.4518259 -2.5859652 -0.08076576 2.3271127 2.6316907
-0.1562838 0.5238664 -0.30090854 2.1000166 0.2802628 -0.38890037 -0.034824617 -1.5261186
-0.27233365 1.6811314 -0.08947726 0.2869394 2.205554 -0.34561965 -0.15533358 -0.35479644
-0.76661134 1.1539855 0.876629 -1.0987214 2.6032126 -1.4575474 2.0165691 -0.9585432
-0.5248905 -1.8669391 1.190169 0.3975852 -0.29178983 -1.6181345 -0.376019 -0.34455723
1.9903488 0.9274651 0.34419334 1.3531137 0.055853482 -0.7686362 1.5155817 -1.9814291
-0.5899543 -0.99799234 1.6127493 -0.46178818 -0.1517129 -0.47452393 -1.3983941 0.3489933
-0.71214366 -0.35616532 2.5190299 -2.0397916 -1.6992005 0.7004154 -1.6195136 -0.8336879
-0.18357319 0.25411376 -1.5589436 -3.660875 -0.3324284 0.8634849 3.860476 -1.5548586

affine_output.weight f4 [1, 8]
00000000: dc85 9b3f cd2b 793f d13d 90bf e7c9 a7bf
00000010: 1d59 8ebf 7a22 913f 4d90 adbf 23cf 933f
1.2150226 0.9733246 -1.1268865 -1.3108491 -1.1120945 1.1338646 -1.3559662 1.1547588
