checkpoints/t1_s1_toytest.model (torch, 625823 bytes, 3 tensors)

embedding_user.weight f4 [9164, 8]
0.8038807 0.33045623 -1.0441421 -0.5767064 -0.19152994 -1.0377913 0.6022535 -2.217897
0.21105713 1.4246941 -0.19526082 -0.2437557 -1.0177119 -0.6297187 -1.0475835 -0.9737051
0.6161993 1.9236678 0.063743256 1.9994051 2.340283 -1.1964207 -1.4098672 -2.5987942
-1.3981173 0.22517866 -1.0449454 3.1630285 -1.5990528 -0.8558965 2.6636713 -1.4240675
-0.8354373 0.20505448 -0.59812814 1.3207437 -2.5924075 -1.4704545 0.15389888 -1.2937046
-0.4103903 0.8970998 0.6714844 -0.36996123 -1.9957048 0.7080516 -0.11765455 0.54696447
1.01058 -0.19296364 0.2506712 2.7069614 -0.36151385 0.59095067 0.43315592 -0.41823572
-0.5524632 0.27770507 1.5600383 -1.9188383 0.39686188 -0.98710775 1.0992364 -1.4610064
-2.66566 0.617609 1.3241943 0.10939022 -1.3829314 1.8379345 -1.837289 -1.0373874
2.0311897 0.9895291 -0.94814366 1.7341202 -1.5191808 1.2589175 -0.631228 0.6509545
0.22560628 1.0018816 -1.3428293 1.3897663 -1.2939981 -1.5399231 -1.839466 1.1869853
-0.7325912 0.7074691 1.0245868 1.1122751 -0.20381945 -0.21204992 -0.3641859 -1.3882726
-0.13591374 0.39585656 -0.25044474 -0.75469476 -0.27662224 -0.26272893 -1.04876 -1.2473276
-0.081136525 2.3777997 0.0002087437 -2.0720234 0.40415895 1.9468988 0.63318884 -1.3042905
0.6647558 1.0038362 -0.9905375 0.43424845 -2.0222843 -0.9760311 -0.8390223 0.7455415
1.4662454 1.4879647 1.2503701 -0.5393882 1.3744352 2.1475558 -2.008002 -1.9359465
0.48782647 1.9311745 1.255151 -0.8879853 1.8075354 0.91370946 -1.8298882 -0.70635957
-0.23162092 -0.23656629 1.572584 -0.44400033 0.8800713 -0.20223857 0.21308492 -1.4864246
-0.94548935 2.5447776 -0.8525604 0.05062055 0.9320768 -2.219723 -1.7773631 -0.25402442
-0.28391314 -0.58377606 -2.20455 0.37398782 -0.9390074 0.5759461 -1.4340011 -1.0791185
-0.6031448 2.2698061 -0.49455345 -0.83798134 -0.86714244 1.6824963 1.2996907 -2.0461118
-1.0671932 1.1953784 0.3535886 -0.034268495 0.33360335 -1.4061327 -0.36554992 -1.050755
-1.3793467 1.100324 -2.9062097 -0.08156631 -3.2857356 0.31235644 -1.2713284 -1.3530766
0.81509566 0.4879221 -0.35120422 2.3960495 -2.8952913 0.549598 -1.4506708 0.82026154
0.1008523 -0.041929975 -0.19080663 1.9294446 -2.060953 3.0725694 -1.4567049 -0.98789805
-0.34998348 0.94888735 0.5593569 0.46607244 0.63582194 -1.201822 -1.3651947 -1.7115328
1.4373488 -0.33027965 -1.8489627 2.740526 -3.5402439 -0.92681617 0.57274115 -3.195121
0.28068617 1.600591 -0.4462149 0.6132628 -0.46418914 1.1978709 -1.1581706 -0.58758056
-2.6188543 1.6234695 0.07814753 -0.17511326 -2.8911977 2.4719768 0.57993025 0.006870563
-0.12023189 2.3846843 0.45914337 -0.75907844 -1.3416559 -0.9134063 1.7411313 -2.3605988
-0.48736942 -0.2758454 0.070773065 0.6779907 -1.9266828 -0.5733577 -0.21643606 -1.9083139
0.3070997 5.1273427 0.28911746 0.22754388 0.06856416 -0.013127508 -0.55020714 1.1263319
00000000: 20cb 4d3f 8f31 a93e 73a6 85bf 08a3 13bf
00000010: 6d20 44be 58d6 84bf 492d 1a3f 06f2 0dc0
00000020: 5c1f 583e 605c b63f 74f2 47be 189b 79be
00000030: 6244 82bf 3f35 21bf 3717 86bf bd44 79bf
00000040: 3dbf 1d3f bf3a f63f d38b 823d 82ec ff3f
00000050: 32c7 1540 5024 99bf 8776 b4bf a552 26c0
00000060: 82f5 b2bf 3c95 663e c5c0 85bf 0f6f 4a40
00000070: c3ad ccbf 081c 5bbf 9779 2a40 d847 b6bf
00000080: 38df 55bf cdf9 513e ed1e 19bf 210e a93f
00000090: 01ea 25c0 da37 bcbf ab97 1d3e 1d98 a5bf
000000a0: ad1e d2be 55a8 653f 67e6 2b3f 8f6b bdbe
000000b0: 4173 ffbf df42 353f def4 f0bd dd05 0c3f
000000c0: af5a 813f 4398 45be fa57 803e db3e 2d40
000000d0: 5818 b9be 8b48 173f 9dc6 dd3e fe22 d6be
000000e0: 3a6e 0dbf 5c2f 8e3e 56af c73f 7e9c f5bf
000000f0: 7b31 cb3e 18b3 7cbf c7b3 8c3f 4202 bbbf
00000100: 2c9a 2ac0 a01b 1e3f 337f a93f fb07 e03d
00000110: e503 b1bf 7041 eb3f 492c ebbf 1cc9 84bf
00000120: 03ff 0140 c751 7d3f 8bb9 72bf a7f7 dd3f
00000130: 8474 c2bf 3524 a13f 2998 21bf f4a4 263f
00000140: 5505 673e a83d 803f d5e1 abbf dde3 b13f
00000150: bba1 a5bf 331c c5bf 9f73 ebbf 22ef 973f
00000160: 198b 3bbf b21c 353f a925 833f 085f 8e3f
00000170: 0cb6 50be 9d23 59be 9376 babe ebb2 b1bf
00000180: f92c 0bbe b6ad ca3e 4b3a 80be ad33 41bf
00000190: 6ea1 8dbe 6884 86be c53d 86bf 6ea8 9fbf
000001a0: e82a a6bd df2d 1840 36e2 5a39 089c 04c0
000001b0: eced ce3e fb33 f93f aa18 223f fef2 a6bf
000001c0: 702d 2a3f b47d 803f de93 7dbf d055 de3e
000001d0: 1b6d 01c0 2ddd 79bf 2aca 56bf cfdb 3e3f
000001e0: eead bb3f a175 be3f 210c a03f 5815 0abf
000001f0: 7eed af3f 8e71 0940 1b83 00c0 18cd f7bf
00000200: 64c4 f93e ba30 f73f caa8 a03f 0153 63bf
00000210: 525d e73f dde8 693f c739 eabf fbd3 34bf
00000220: 092e 6dbe 6f3e 72be 6f4a c93f 0354 e3be
00000230: 5a4c 613f a117 4fbe ef32 5a3e 2943 bebf
00000240: 970b 72bf a3dd 2240 6641 5abf 7e57 4f3d
00000250: 969c 6e3f f10f 0ec0 a280 e3bf 7d0f 82be
00000260: 105d 91be 5972 15bf 5917 0dc0 557b bf3e
00000270: ca62 70bf 3471 133f 598d b7bf 8e20 8abf
00000280: b367 1abf 8144 1140 1c36 fdbe f285 56bf
00000290: 0cfd 5dbf 0a5c d73f 445c a63f 7ff3 02c0
000002a0: c999 88bf 2902 993f 9109 b53e 1f5d 0cbd
000002b0: 0fce aa3e 28fc b3bf 5c29 bbbe 247f 86bf
000002c0: 6f8e b0bf 6bd7 8c3f 57ff 39c0 3d0c a7bd
000002d0: 7e49 52c0 2fed 9f3e e4ba a2bf 9d31 adbf
000002e0: 1caa 503f edd0 f93e 0ad1 b3be e058 1940
000002f0: 744c 39c0 74b2 0c3f 95af b9bf a9fc 513f
00000300: a78b ce3d c4be 2bbd d062 43be 0af8 f63f
00000310: a7e6 03c0 faa4 4440 4e75 babf e3e6 7cbf
00000320: 0931 b3be 48ea 723f 0432 0f3f 0ca1 ee3e
00000330: 3ac5 223f 4ed5 99bf b3be aebf 8213 dbbf
00000340: 0cfb b73f 6a1a a9be cfaa ecbf c764 2f40
00000350: 5b93 62c0 d343 6dbf 2a9f 123f dd7c 4cc0
00000360: 19b6 8f3e 2ae0 cc3f 4876 e4be cafe 1c3f
00000370: 33aa edbe d553 993f ef3e 94bf ae6b 16bf
00000380: 4f9b 27c0 d9cd cf3f d00b a03d e450 33be
00000390: 6209 39c0 de34 1e40 4f76 143f 7622 e13b
000003a0: 233c f6bd ab9e 1840 d714 eb3e f752 42bf
000003b0: 61bb abbf ffd4 69bf 64dd de3f 0d14 17c0
000003c0: 7c88 f9be 9c3b 8dbe 78f1 903d cc90 2d3f
000003d0: 8b9d f6bf 92c7 12bf 6aa1 5dbe a143 f4bf
000003e0: 2c3c 9d3e 3113 a440 3407 943e 4301 693e
000003f0: 5e6b 8c3d c214 57bc 60da 0cbf a52b 903f

embedding_item.weight f4 [10341, 8]
-0.86989725 -0.57571197 0.72676563 -0.49190867 -0.26182953 0.8742435 0.39795387 0.74463826
-3.351417 -1.2845304 0.14894468 0.1302013 -0.053614046 -0.4992109 -0.5836652 0.42077965
-0.750002 0.63516235 1.1007701 -0.12591362 2.3753533 0.054595146 -0.8496927 -0.5726073
-1.5400153 1.8054512 -0.6151974 -0.91639584 0.6890087 -3.07783 2.9523726 -0.7895924
2.8751261 0.38540456 0.025672961 2.9636793 -3.4477468 -2.3990529 -0.37757412 0.21088757
0.41063 1.7402538 1.3209966 -3.5398395 -1.081274 2.1816132 -4.9495177 -3.6680079
-1.9003644 1.2643278 1.9254386 -1.1439764 -0.20356151 -1.1238879 -0.5298301 -0.92267275
-3.0162835 1.0790979 -1.341108 3.564665 -0.1578798 -2.2594187 0.09427698 -0.74544716
-0.4009976 1.5969868 1.7671585 -3.0005767 -0.91091263 2.4032478 -4.8395185 -4.1458335
1.4156896 0.23548876 0.6968256 -4.721233 -1.2986084 1.5185285 -3.3377953 -4.4529166
0.7335803 -0.8373049 -1.0706179 0.3333986 1.4268887 -1.7796149 -0.575982 0.83681446
4.2653246 1.3959938 1.3007344 -2.370107 0.5048834 -3.4342232 2.010708 0.62408334
1.8291892 -4.371914 0.16756167 -1.768334 3.239399 -0.24519531 -1.4931237 3.7091596
1.4010278 0.06764569 0.23332044 -0.0022675279 3.0230026 -0.23653145 2.101584 0.36305052
-0.15720265 1.469217 0.68016106 -0.65769184 -1.4109948 -1.1201193 -0.9803113 -0.89933556
-0.25986007 0.25538263 0.34999105 -0.44421816 1.4796672 2.1112695 1.612902 -0.13900892
0.58041877 -0.077551596 0.64235324 -0.083638445 0.6344376 0.29115131 -0.006733872 -0.14361742
1.0640708 -2.0119717 0.8974142 -1.4494702 -0.6073584 0.2977654 2.7085426 1.1568484
1.5903752 -0.059235778 3.17144 0.05833699 2.580284 -0.62175757 -0.10336269 -1.2101436
0.36644712 0.7887729 1.2746972 -2.883884 -0.97040343 2.4101307 -4.7287717 -3.664599
0.024756273 0.48770818 -0.29149684 0.48002574 -0.7726461 1.0917792 1.6332767 -0.45017633
3.9121065 0.96312356 0.32322112 -2.34547 2.5660536 -4.4545445 -0.32600987 -1.0668536
-0.032788076 -1.1561499 2.0940084 0.8968982 -2.5034866 -2.4729564 0.43461925 1.5101432
3.0549538 0.024560763 -0.12902021 1.9597325 -2.8520982 -1.4897425 -0.29338312 0.4384471
-0.6980935 2.2288952 0.17008986 -0.32871634 -0.11055773 -0.3336211 -0.47628003 -1.7771561
0.12141902 1.2137417 0.16204372 -0.26843137 0.655874 0.8123682 0.21447629 0.31029326
-0.57847685 0.20249227 0.96976656 2.474002 1.5304989 -1.4119204 -0.36486128 2.1033936
0.20258899 1.471884 -0.29830673 -0.56879663 -0.47478878 0.7397389 2.0729344 -0.308152
-2.1546376 -0.26318878 -1.4143201 -0.9879998 -0.604212 -0.14446017 -1.313269 -0.29871696
0.8441317 1.6683602 1.1759189 1.5649655 -0.6031339 0.8576587 -0.3037899 0.10762003
2.726273 0.3175427 -1.267487 0.67855114 -0.89660543 0.64524686 0.77715063 0.6932608
0.26219967 -4.0477962 0.7517251 -3.3960783 -3.2730942 2.3923697 -2.4531498 -1.4192668
00000000: 96b1 5ebf dc61 13bf 500d 3a3f 74db fbbe
00000010: 850e 86be 6cce 5f3f 9cc0 cb3e 9da0 3e3f
00000020: 9e7d 56c0 7e6b a4bf f484 183e 7d53 053e
00000030: 679a 5bbd 9298 ffbe 156b 15bf 6e70 d73e
00000040: 2200 40bf 009a 223f 09e6 8c3f 80ef 00be
00000050: ca05 1840 299f 5f3d 7685 59bf 6496 12bf
00000060: 391f c5bf 0619 e73f 947d 1dbf eb98 6abf
00000070: e062 303f 2bfb 44c0 acf3 3c40 ba22 4abf
00000080: 1102 3840 bf53 c53e 1a50 d23c ecac 3d40
00000090: e2a7 5cc0 158a 19c0 6551 c1be e9f2 573e
000000a0: 183e d23e a3c0 de3f 6b16 a93f bb8c 62c0
000000b0: 3067 8abf 8d9f 0b40 7362 9ec0 a4c0 6ac0
000000c0: 243f f3bf 7ed5 a13f c674 f63f d26d 92bf
000000d0: 6e72 50be 8fdb 8fbf f2a2 07bf 4834 6cbf
000000e0: ca0a 41c0 e11f 8a3f 6da9 abbf 7923 6440
000000f0: 3eab 21be 519a 10c0 4a14 c13d a0d5 3ebf
00000100: 8f4f cdbe 106a cc3f 4032 e23f 7309 40c0
00000110: 9231 69bf d0ce 1940 56dd 9ac0 abaa 84c0
00000120: 5135 b53f f723 713e 2a63 323f 5714 97c0
00000130: cd38 a6bf 245f c23f 709e 55c0 4b7e 8ec0
00000140: ebcb 3b3f 9d59 56bf 020a 89bf 39b3 aa3e
00000150: 4aa4 b63f 6cca e3bf 8e73 13bf 7939 563f
00000160: 8a7d 8840 edaf b23f 777e a63f d5af 17c0
00000170: 0a40 013f 50ca 5bc0 71af 0040 edc3 1f3f
00000180: df22 ea3f b8e6 8bc0 4995 2b3e c558 e2bf
00000190: 5052 4f40 7b14 7bbe ad1e bfbf df62 6d40
000001a0: e154 b33f d389 8a3d 8eeb 6e3e ce9a 14bb
000001b0: e078 4140 4d35 72be 5a80 0640 c2e1 b93e
000001c0: bbf9 20be 4d0f bc3f 091f 2e3f 7e5e 28bf
000001d0: 7a9b b4bf 1260 8fbf aef5 7abf db3a 66bf
000001e0: 610c 85be 83c1 823e 0732 b33e 9070 e3be
000001f0: bc65 bd3f 0a1f 0740 9373 ce3f 5b58 0ebe
00000200: 5396 143f 5fd3 9ebd 4371 243f a24a abbd
00000210: 816a 223f c911 953e d0a7 dcbb 7210 13be
00000220: 7933 883f 25c4 00c0 f0bc 653f 3d88 b9bf
00000230: d77b 1bbf b574 983e c358 2d40 9c13 943f
00000240: 6a91 cb3f 37a1 72bd dff8 4a40 c5f2 6e3d
00000250: 6023 2540 812b 1fbf d1af d3bd fce5 9abf
00000260: f59e bb3e 05ed 493f 4729 a33f 8e91 38c0
00000270: 5c6c 78bf 953f 1a40 1952 97c0 ca88 6ac0
00000280: abcd ca3c e3b4 f93e 133f 95be efc5 f53e
00000290: 23cc 45bf 6cbf 8b3f 360f d13f 837d e6be
000002a0: f45f 7a40 448f 763f 3d7d a53e 2e1c 16c0
000002b0: 393a 2440 a18b 8ec0 c4ea a6be a98e 88bf
000002c0: ca4c 06bd b8fc 93bf 3c04 0640 1f9b 653f
000002d0: 2039 20c0 eb44 1ec0 6a86 de3e 5f4c c13f
000002e0: 5d84 4340 a733 c93c e01d 04be 84d8 fa3f
000002f0: c788 36c0 e2af bebf 5036 96be 237c e03e
00000300: 41b6 32bf 38a6 0e40 092c 2e3e 824d a8be
00000310: 176c e2bd 63d0 aabe fada f3be da79 e3bf
00000320: 89aa f83d e35b 9b3f caee 253e d66f 89be
00000330: 5ce7 273f 5df7 4f3f ac9f 5b3e c2de 9e3e
00000340: 0f17 14bf 225a 4f3e 9f42 783f 0c56 1e40
00000350: 63e7 c33f cfb9 b4bf 19cf babe 009e 0640
00000360: 7d73 4f3e b266 bc3f a9bb 98be a89c 11bf
00000370: 8417 f3be 875f 3d3f f5aa 0440 19c6 9dbe
00000380: 95e5 09c0 aec0 86be 7108 b5bf 8eed 7cbf
00000390: a3ad 1abf 5eed 13be 3319 a8bf 6ef1 98be
000003a0: 0419 583f d48c d53f 8384 963f ca50 c83f
000003b0: fc66 1abf 858f 5b3f 5a8a 9bbe e467 dc3d
000003c0: 427b 2e40 f594 a23e 043d a2bf 87b5 2d3f
000003d0: ef87 65bf e62e 253f 58f3 463f 8a79 313f
000003e0: 093f 863e 8c87 81c0 0e71 403f 5959 59c0
000003f0: 607a 51c0 961c 1940 6800 1dc0 89aa b5bf

affine_output.weight f4 [1, 8]
-2.816672 -2.9902875 2.558344 -2.8701518 2.8270118 2.60835 2.788434 -2.8834631
00000000: 5b44 34c0 df60 3fc0 e8bb 2340 91b0 37c0
00000010: c3ed 3440 35ef 2640 b475 3240 a98a 38c0
