checkpoints/t1_s1-s2-s3_toytest.model (torch, 988447 bytes, 3 tensors)

embedding_user.weight f4 [19601, 8]
-0.8578431 -1.5908709 0.28492498 -1.107139 -0.2238369 -0.6297838 0.890463 -0.5287712
0.071718656 -1.5685511 1.6849095 0.98082656 2.2599523 0.18556932 -1.7522523 0.7333128
0.5423853 -1.3641349 -0.884859 -1.0043312 0.7565332 2.3353617 0.38615474 -0.47201827
-0.7799796 -0.8159041 2.8895388 -0.28506082 -0.93839943 -0.40670404 -1.6384783 -1.562993
0.102243416 -1.4238571 0.5177552 -0.90255266 -0.22955845 1.5169183 -1.8447212 0.4944429
0.11307078 -0.3718272 -0.1759106 -0.27587768 0.9320175 -0.34687713 0.52822834 -0.047114976
0.62649834 -0.65369785 1.800101 -1.0911658 1.0049618 -1.4408615 0.59036666 -0.6577405
0.05321646 -2.7206414 0.9293199 0.7073576 -1.0028056 0.87263453 1.8834109 1.5354992
1.8209175 -0.19962467 -0.2229063 -0.9800643 0.7673429 -0.6462659 0.071615644 0.3091409
0.4743196 -0.23915713 -1.1214536 -0.12862132 1.0614433 0.4645486 -0.5987978 0.12129553
-0.25537392 0.53320247 0.59017944 -0.16301495 -0.18180361 0.99817556 0.0983845 -0.051107872
-0.8919412 -0.7019202 2.3605812 -1.037022 -0.120069325 0.85344416 0.3442791 -0.11931625
0.053517025 -0.20728017 0.46876872 -0.07998887 -0.20763953 0.89165866 -0.28578252 0.3168511
-1.0954918 1.0271515 0.7821223 -0.7358572 -0.5295905 0.35554007 1.3513998 0.27745894
0.31304938 -1.29225 -1.3515701 -0.86426425 -0.42316207 -0.19330584 -0.44584674 0.48344824
0.5362895 1.3356017 1.6536791 -0.19789575 -0.58867806 2.520663 -0.47832346 -1.4895492
1.5743482 -0.71965116 -0.017312162 -1.5450473 2.3866568 1.0903215 2.0215628 -0.7274131
2.966299 -0.15253791 1.3514668 -0.109282546 2.0822237 2.0124679 -1.5794729 1.5164757
-0.7526893 -1.9648237 -0.65681785 -1.2758647 3.4603055 -0.17099741 2.1662946 -1.1184357
1.7749932 -0.04502895 0.07204184 -0.15824035 -0.5142048 -0.12849045 -0.9352226 -0.0057796007
-0.8633683 1.4432971 -0.32787585 -2.1772122 1.0600611 2.116882 -0.2793888 -0.94946814
0.12416713 0.32846132 1.0030675 -1.5780036 0.59873277 -0.45922047 0.25401807 -0.8337174
-0.7219871 0.33012432 -1.238241 -1.7531255 0.6618469 -0.29470128 -0.7317013 2.074194
-0.07566948 -0.20204556 -0.83979684 -3.0002 -1.5447806 -1.5046685 -1.1820784 0.049484763
-1.4505135 -1.073088 -1.0952036 1.0106053 1.6614114 -1.4361734 -1.4747015 1.2312152
1.4211324 0.4533776 0.9050724 -2.4073982 2.4432666 0.0751011 0.45461324 0.32743788
-0.7473972 0.16077113 0.3132175 -1.8246547 -1.0571052 0.31912157 0.84692293 1.2804767
0.93412006 -0.20430623 1.2992204 -1.5572226 1.3532096 -0.4538159 0.0023798726 -0.82211757
-0.58467746 0.86791116 0.7279751 0.037208483 0.8740198 -0.01107303 -2.8760386 1.3267796
-0.084458165 -1.1674205 -1.819879 -0.98760456 -1.0951612 1.7548622 -1.638489 0.13516301
-0.49133095 -0.8065101 0.9356587 -0.030034099 -0.13324088 0.60932237 -0.7671682 -0.23365436
-0.9017537 -0.39609826 -0.7162266 -1.5920563 0.5255328 0.84721965 -0.72105634 -0.44709352
00000000: 9b9b 5bbf a8a1 cbbf b0e1 913e bbb6 8dbf
00000010: 8035 65be 8339 21bf 62f5 633f 8d5d 07bf
00000020: 3be1 923d 48c6 c8bf 1dab d73f 7317 7b3f
00000030: 0fa3 1040 e205 3e3e ce49 e0bf 63ba 3b3f
00000040: c3d9 0a3f f99b aebf 1f86 62bf ed8d 80bf
00000050: 29ac 413f 9176 1540 13b6 c53e 61ac f1be
00000060: beac 47bf 17df 50bf 34ee 3840 7ef3 91be
00000070: f23a 70bf 833b d0be a8b9 d1bf 2810 c8bf
00000080: ff64 d13d f340 b6bf 9b8b 043f b10d 67bf
00000090: 5f11 6bbe 612a c23f d31f ecbf 9f27 fd3e
000000a0: a791 e73d 2260 bebe e921 34be d73f 8dbe
000000b0: b398 6e3f e199 b1be f939 073f a2fb 40bd
000000c0: 3262 203f be58 27bf b669 e63f 52ab 8bbf
000000d0: 97a2 803f 266e b8bf 4522 173f ae61 28bf
000000e0: 81f9 593d fd1e 2ec0 e9e7 6d3f 6315 353f
000000f0: ef5b 80bf fa64 5f3f 9c13 f13f 3d8b c43f
00000100: d313 e93f 696a 4cbe 8d41 64be 7ee5 7abf
00000110: 9670 443f af71 25bf 39ab 923d b747 9e3e
00000120: 05da f23e 9be5 74be cb8b 8fbf 4fb5 03be
00000130: 60dd 873f 50d9 ed3e d04a 19bf ca69 f83d
00000140: 5fc0 82be f57f 083f 0016 173f 64ed 26be
00000150: ba2a 3abe 6f88 7f3f d07d c93d 7d56 51bd
00000160: 4256 64bf 0bb1 33bf c313 1740 23bd 84bf
00000170: e8e6 f5bd 517b 5a3f 5a45 b03e 145c f4bd
00000180: ab34 5b3d 4141 54be 7402 f03e 34d1 a3bd
00000190: 759f 54be be43 643f 1652 92be 4f3a a23e
000001a0: 1339 8cbf b379 833f 2b39 483f 2361 3cbf
000001b0: 3e93 07bf 5909 b63e abfa ac3f 190f 8e3e
000001c0: 0248 a03e 7368 a5bf 4000 adbf 6c40 5dbf
000001d0: b3a8 d8be f7f1 45be 0646 e4be 8786 f73e
000001e0: 454a 093f fff4 aa3f c2ab d33f 2fa5 4abe
000001f0: 9bb3 16bf 8b52 2140 d0e6 f4be 8ca9 bebf
00000200: 3e84 c93f 0f3b 38bf 3cd2 8dbc 1cc4 c5bf
00000210: fcbe 1840 a88f 8b3f 4961 0140 bf37 3abf
00000220: d8d7 3d40 e632 1cbe ddfc ac3f 87cf dfbd
00000230: 2743 0540 46cc 0040 2b2c cabf e01b c23f
00000240: 3fb0 40bf 587f fbbf 3725 28bf 894f a3bf
00000250: a575 5d40 f219 2fbe 92a4 0a40 e728 8fbf
00000260: fa32 e33f 4770 38bd ac8a 933d c209 22be
00000270: eda2 03bf 0093 03be c06a 6fbf ce62 bdbb
00000280: b405 5dbf f6bd b83f 58df a7be 7257 0bc0
00000290: 15b0 873f ff7a 0740 0c0c 8fbe 5810 73bf
000002a0: 564b fe3d 152c a83e 8464 803f 06fc c9bf
000002b0: 8d46 193f f21e ebbe a80e 823e 816e 55bf
000002c0: 26d4 38bf 0e06 a93e ae7e 9ebf 6b66 e0bf
000002d0: cc6e 293f 16e3 96be c750 3bbf 98bf 0440
000002e0: 9af8 9abd 08e5 4ebe edfc 56bf 4703 40c0
000002f0: 5fbb c5bf fa98 c0bf 584e 97bf 89b0 4a3d
00000300: 6daa b9bf f35a 89bf a22f 8cbf 845b 813f
00000310: 21a9 d43f 88d4 b7bf 05c3 bcbf 7698 9d3f
00000320: abe7 b53f 1c21 e83e d3b2 673f d012 1ac0
00000330: 7b5e 1c40 9bce 993d 11c3 e83e f0a5 a73e
00000340: 6c55 3fbf 30a1 243e 0b5e a03e 498e e9bf
00000350: 394f 87bf e763 a33e f1cf 583f a9e6 a33f
00000360: 7e22 6f3f a735 51be db4c a63f 1253 c7bf
00000370: f935 ad3f 8f5a e8be a3f7 1b3b 4c76 52bf
00000380: 6cad 15bf 6d2f 5e3f 935c 3a3f ec67 183d
00000390: c3bf 5f3f a76b 35bc 0411 38c0 ead3 a93f
000003a0: 67f8 acbd 096e 95bf ccf1 e8bf a7d3 7cbf
000003b0: 3e2e 8cbf 539f e03f 02ba d1bf 2c68 0a3e
000003c0: bb8f fbbe 7277 4ebf 5487 6f3f 120a f6bc
000003d0: 4c70 08be 8dfc 1b3f 2365 44bf 1743 6fbe
000003e0: 55d9 66bf 64cd cabe a05a 37bf 80c8 cbbf
000003f0: 5189 063f 63e3 583f 2697 38bf 71e9 e4be

embedding_item.weight f4 [11236, 8]
-0.66615546 -0.087292776 -0.27002406 0.03489968 0.5911325 1.821851 1.3540256 0.8780567
-2.437515 1.3905302 2.9739666 -0.20008127 -1.8754723 -0.103239626 0.17173795 1.6590385
3.115043 -1.9699827 1.1106889 -1.5384692 -0.670119 -3.1739275 1.9753065 -0.49629632
-1.3007114 -1.690751 -0.7940176 -2.5151148 2.6270616 3.3406227 1.5898179 -0.5223742
-2.947835 -0.051774915 -3.3765106 -2.4068935 0.16806728 -1.5566835 -2.895417 1.9698333
3.8840024 -0.92121214 3.0674121 1.1608145 -2.1258907 2.5786002 2.0429778 -0.5557411
-0.8691808 0.1731807 -2.3428028 -2.7100492 0.50249934 2.552158 0.7596995 -1.2432878
-0.98186964 -0.129533 -1.6728609 -0.09055906 0.3441545 -0.51790434 1.0200424 -0.30497295
3.3869178 -0.84696555 2.8744917 1.0549432 -1.0891689 2.9668994 0.952911 -1.3403678
3.9535866 -0.5626717 3.559423 1.325418 -1.0975623 2.3905685 2.4502099 -0.061631624
3.172768 -1.4734399 -2.9881551 -1.1296895 0.792321 -6.180948 1.1437812 -4.547949
-0.35975203 0.40462422 -1.9548985 0.5059667 -0.8269934 1.1270864 -0.16858849 -2.0273662
-0.5142974 1.2333499 -3.5710251 2.6797674 1.66611 -1.6786048 -1.1173846 1.860763
-0.6511815 0.36550626 -0.42360908 -0.7846304 1.4308382 -0.7065909 1.4744781 -2.84156
2.7174706 -1.5713772 2.5625687 0.3714598 5.269393 0.28309044 0.22584146 -0.49657992
-0.6868933 -1.3136033 0.8540217 -0.30609697 0.15086016 -0.37927637 0.5101137 -1.5001045
-0.896722 -0.005027701 0.14026453 0.60623074 -0.027886111 -0.720768 0.67054147 -1.6175643
0.087523624 1.9696759 -1.3827688 2.053096 -1.6778517 1.0623945 -0.8645176 -1.9453067
-1.8419149 0.5718234 -0.5883113 -0.20393604 -0.09278877 0.9116866 0.13397048 -0.0867643
4.32713 -1.1634207 4.7555566 1.3391259 -1.2405773 3.2495618 2.7548158 0.44277066
-0.836536 -1.6440911 1.306952 -1.6269377 -0.61435664 -1.5008037 -0.29412302 -0.29062507
-0.09659063 -0.58384264 -1.0681498 0.52093655 -0.55622077 -0.29820052 0.5158526 -1.6580892
-2.6555383 1.1988657 1.0798168 1.5578941 1.304147 -3.0493057 -0.8634685 1.8640441
-2.7744358 -0.14013065 -2.4164891 -1.8060545 0.23446612 -2.149014 -1.832496 2.213416
-0.78943086 -0.6662791 -0.53315085 -0.5694688 0.74348885 0.91205955 -1.3295923 0.8441542
-2.657146 -1.8970252 0.37831968 -1.0313793 0.15190981 0.28209227 -0.4510882 -0.68297124
1.8646665 -1.8942289 -0.9750931 -1.2991421 -1.0317153 0.6989794 -1.8390573 1.4784139
-0.16256122 -1.9119588 -0.14535336 0.048359446 1.9627228 0.5719355 0.2053236 0.17304556
0.1319871 0.3759357 0.070636176 1.2417194 -0.43618488 0.19964194 -0.11189766 0.012242317
-0.14856966 0.6369177 0.42801932 0.88061607 -0.025063569 0.45872366 -0.8072599 1.103857
-0.4765611 1.7592586 1.1354318 -0.012394565 -0.8788719 -1.1578481 -0.3359551 -1.1497562
0.036248226 0.085589506 -0.2461649 3.8052948 -2.5268757 -4.2225027 0.38526866 -1.4134028
00000000: 2a89 2abf 8ec6 b2bd 9840 8abe f8f2 0e3d
00000010: 7654 173f 6a32 e93f b650 ad3f 53c8 603f
00000020: 3f00 1cc0 e5fc b13f 7855 3e40 1be2 4cbe
00000030: 7a0f f0bf 4c6f d3bd 13dc 2f3e 605b d43f
00000040: dd5c 4740 6528 fcbf 0e2b 8e3f 8fec c4bf
00000050: eb8c 2bbf a121 4bc0 d8d6 fc3f 8d1a febe
00000060: b67d a6bf 876a d8bf bd44 4bbf a4f7 20c0
00000070: c721 2840 c3cc 5540 277f cb3f 51ba 05bf
00000080: 54a9 3cc0 ef11 54bd c018 58c0 8b0a 1ac0
00000090: d419 2c3e 6841 c7bf 834e 39c0 7f23 fc3f
000000a0: 7f93 7840 8fd4 6bbf 7b50 4440 9295 943f
000000b0: 980e 08c0 c907 2540 26c0 0240 0c45 0ebf
000000c0: a282 5ebf 4856 313e 7bf0 15c0 7271 2dc0
000000d0: cca3 003f 8f56 2340 ab7b 423f 0e24 9fbf
000000e0: cf5b 7bbf 4ca4 04be 4e20 d6bf 0777 b9bd
000000f0: 0535 b03e 6195 04bf c090 823f 6a25 9cbe
00000100: 43c3 5840 bcd2 58bf acf7 3740 6108 873f
00000110: e369 8bbf aee1 3d40 faf1 733f 2c91 abbf
00000120: 9007 7d40 410b 10bf 96cd 6340 4ca7 a93f
00000130: ec7c 8cbf 13ff 1840 3dd0 1c40 7171 7cbd
00000140: a20e 4b40 ae99 bcbf ef3d 3fc0 aa99 90bf
00000150: 8dd5 4a3f 53ca c5c0 6c67 923f cc88 91c0
00000160: 6b31 b8be e82a cf3e 1d3a fabf 0987 013f
00000170: d7b5 53bf 5e44 903f 76a2 2cbe 5ec0 01c0
00000180: ffa8 03bf 69de 9d3f ad8b 64c0 4f81 2b40
00000190: 1843 d53f 86dc d6bf 7506 8fbf 7b2d ee3f
000001a0: d5b3 26bf a323 bb3e 4ae3 d8be 8add 48bf
000001b0: b525 b73f 24e3 34bf b3bb bc3f 1edc 35c0
000001c0: 0aeb 2d40 e322 c9bf 2001 2440 fb2f be3e
000001d0: de9e a840 3bf1 903e fc42 673e b93f febe
000001e0: 3dd8 2fbf 2724 a8bf 2ba1 5a3f beb8 9cbe
000001f0: 167b 1a3e 8330 c2be d096 023f 6d03 c0bf
00000200: 938f 65bf 6abf a4bb 81a1 0f3e f031 1b3f
00000210: 6a71 e4bc 4084 38bf 9ba8 2b3f 590c cfbf
00000220: 963f b33d 571e fc3f 91fe b0bf ed65 0340
00000230: d8c3 d6bf 8bfc 873f 0751 5dbf cfff f8bf
00000240: dec3 ebbf 0563 123f 929b 16bf 9cd4 50be
00000250: 0a08 bebd 4b64 693f 8f2f 093e 7bb1 b1bd
00000260: d977 8a40 f8ea 94bf 852d 9840 7a68 ab3f
00000270: 3dcb 9ebf d2f8 4f40 e74e 3040 d6b2 e23e
00000280: 3927 56bf 9471 d2bf 344a a73f 7f3f d0bf
00000290: 7a46 1dbf 561a c0bf 4b97 96be cfcc 94be
000002a0: 4fd1 c5bd b676 15bf 22b9 88bf 195c 053f
000002b0: 7c64 0ebf bdad 98be ea0e 043f 443c d4bf
000002c0: 57f4 29c0 6e74 993f 7037 8a3f 1369 c73f
000002d0: 4aee a63f d327 43c0 460c 5dbf ff98 ee3f
000002e0: 5b90 31c0 697e 0fbe c2a7 1ac0 cb2c e7bf
000002f0: e317 703e 7289 09c0 3b8f eabf 9ca8 0d40
00000300: 2418 4abf 4491 2abf 937c 08bf b5c8 11bf
00000310: 4955 3e3f bc7c 693f 1530 aabf 7d1a 583f
00000320: ae0e 2ac0 b9d1 f2bf 1eb3 c13e 3d04 84bf
00000330: 3f8e 1b3e 666e 903e 08f5 e6be 34d7 2ebf
00000340: 64ad ee3f 1876 f2bf b49f 79bf 4a4a a6bf
00000350: 3f0f 84bf 50f0 323f 3b66 ebbf ab3c bd3f
00000360: 7376 26be 11bb f4bf 83d7 14be 8e14 463d
00000370: 803a fb3f 5d6a 123f 5a40 523e db32 313e
00000380: a027 073e a57a c03e b3a9 903d a9f0 9e3f
00000390: a053 dfbe f06e 4c3e 9a2a e5bd 0094 483c
000003a0: a522 18be 0a0d 233f 5925 db3e 0e70 613f
000003b0: 1d52 cdbc d4dd ea3e 96a8 4ebf 304b 8d3f
000003c0: d1ff f3be 632f e13f d455 913f 9312 4bbc
000003d0: c0fd 60bf 5e34 94bf 4f02 acbe 362b 93bf
000003e0: 0579 143d 8d49 af3d a712 7cbe f389 7340
000003f0: 55b8 21c0 be1e 87c0 ef41 c53e 62ea b4bf

affine_output.weight f4 [1, 8]
2.5772226 -2.4699206 -2.3356066 -2.6553385 -2.3748193 -2.2876468 2.2999315 2.3592656
00000000: 37f1 2440 2e13 1ec0 947a 15c0 11f1 29c0
00000010: 0afd 17c0 ce68 12c0 1432 1340 35fe 1640
