checkpoints/t1_s1-s2-s3_toytest.model (torch, 988447 bytes, 3 tensors)

embedding_user.weight f4 [19601, 8]
0.20051092 0.109014906 1.8496773 -0.5621534 -0.37730554 -0.34704855 -0.7983607 -0.094075575
-0.6424586 0.47633654 1.0169833 -0.8977254 0.025000071 1.1037339 -0.62035495 -1.0955712
0.68760943 -1.3884495 0.44481996 1.2972096 1.0805391 0.6285688 0.5791923 0.015412378
1.6990088 1.8263986 3.9968536 0.027067214 -0.3136869 -0.5529398 -0.10099508 1.7585689
-0.407998 0.056614775 0.3053249 0.09813966 0.100860186 1.0750341 -0.7764281 0.23176713
0.849684 1.1423682 0.06833652 1.2374026 -0.23891264 0.32853013 0.3388416 -0.46854264
-0.23766282 -0.50671995 0.5933312 0.0022174227 0.0040744673 -0.4169981 0.45546427 0.4353804
0.46853012 1.886487 2.7489514 -0.53411406 -1.4239044 -0.087067485 0.8553183 1.2847546
0.37240905 0.939935 0.9569918 1.697625 0.3059146 -0.58094287 1.5776191 -0.5834166
0.5201652 1.5704398 -0.23523943 0.5952578 0.17395145 0.92537755 0.41336846 -0.6479082
0.9073373 -1.5536524 -0.77553594 3.131492 1.687668 3.2524443 0.15884352 1.1607517
-0.120508604 -0.25101322 1.0494946 0.1400466 0.063155584 0.54799646 -0.54626137 1.0997238
-0.18206696 0.06722794 1.6494771 1.464153 -1.3505709 0.6729261 0.49751443 0.9307017
-0.07253776 0.09856586 -0.29687682 2.598509 0.78200316 -0.35447344 1.7759868 0.39029685
-0.45647103 1.4948478 -0.7457223 -0.009400761 -0.40622234 0.14175582 -0.19295003 -0.3555263
-0.6809746 -0.5394535 -0.0010294254 0.8412843 0.25844267 0.66123265 0.51614654 0.42342103
-0.08964075 -0.17879963 0.58158445 -0.3622346 0.748521 0.8876473 0.86291647 0.6913588
1.252773 -0.6994639 1.2453076 -1.0972862 -0.19220805 2.1278076 -1.1210996 0.5281138
-0.19976382 -1.0181793 1.0681633 1.2377476 2.075329 -0.12817842 0.78136003 0.6705402
0.4206926 0.012208113 -0.38377625 -0.3952762 0.6477058 0.79447955 1.0600221 -0.23828769
-1.129635 2.7853937 -0.506753 -1.3647097 0.7255457 1.2124584 -0.47180545 0.6548819
0.9314526 0.28857434 0.38277963 0.6014327 0.45824242 -0.34178308 0.6039704 0.87952566
0.79132116 1.0413975 0.18376793 0.854489 1.457673 1.8152183 -1.1592687 -2.3388448
-0.10957907 -1.4049613 -1.6130612 0.1662649 1.4732751 0.24442554 0.20079212 -0.8392573
-1.5950423 1.4045197 0.37597793 -1.2530937 1.6279236 -0.09810182 -1.8217921 1.5782484
1.7594668 0.5963792 0.02032338 1.1754023 0.49251878 0.93821156 -1.3248477 0.86618835
-1.1195226 -0.29409856 1.551559 1.8545744 -0.23320381 -1.1204363 0.417089 0.9307338
0.07972817 0.13866507 -0.069608 0.74184686 1.0405076 -0.26343668 0.12943058 0.46425316
-0.16749749 0.9628294 1.7683452 -0.4571119 0.8497352 -1.5073003 1.5403615 -0.6700687
1.675832 0.8106223 -0.41189113 3.060867 0.18644609 1.8225687 -0.04463733 0.95929843
0.5140888 0.8854786 2.1830952 1.8207498 -0.5313818 0.77458096 0.96374416 0.7558974
-0.93624616 -0.74920374 -0.77101517 1.7405459 1.1717885 0.7154209 -0.12150868 -1.547075
00000000: bc52 4d3e 3543 df3d 3ac2 ec3f 49e9 0fbf
00000010: 312e c1be 59b0 b1be 5e61 4cbf b2aa c0bd
00000020: 2b78 24bf 62e2 f33e 822c 823f 55d1 65bf
00000030: f3cc cc3c 2747 8d3f 95cf 1ebf ad3b 8cbf
00000040: 2c07 303f b7b8 b1bf 71bf e33e f70a a63f
00000050: 1b4f 8a3f e3e9 203f f245 143f 3384 7c3c
00000060: 1f79 d93f 6ec7 e93f 73cc 7f40 10bc dd3c
00000070: 929b a0be 768d 0dbf 82d6 cebd c918 e13f
00000080: 1de5 d0be e5e4 673d 8c53 9c3e 72fd c83d
00000090: c98f ce3d b89a 893f fec3 46bf 5d54 6d3e
000000a0: e484 593f 1f39 923f 04f4 8b3d 3563 9e3f
000000b0: 84a5 74be 1a35 a83e a57c ad3e d2e4 efbe
000000c0: e25d 73be 66b8 01bf 8ee4 173f 2e52 113b
000000d0: 1c83 853b c680 d5be 9d32 e93e 2eea de3e
000000e0: 2ee3 ef3e 6878 f13f d2ee 2f40 b3bb 08bf
000000f0: 8042 b6bf 7050 b2bd 24f6 5a3f d772 a43f
00000100: 66ac be3e 959f 703f 6afd 743f c74b d93f
00000110: d7a0 9c3e acb8 14bf 6cef c93f ca5a 15bf
00000120: 8c29 053f 2c04 c93f 9be2 70be d162 183f
00000130: 5420 323e 8be5 6c3f 08a5 d33e 50dd 25bf
00000140: 4247 683f 15de c6bf 8689 46bf 5d6a 4840
00000150: 8105 d83f 0c28 5040 e0a7 223e 8393 943f
00000160: 37cd f6bd ce84 80be d755 863f 6068 0f3e
00000170: b757 813d 7f49 0c3f c9d7 0bbf c0c3 8c3f
00000180: c36f 3abe cdae 893d 1122 d33f 5e69 bb3f
00000190: 82df acbf e344 2c3f 36ba fe3e 7742 6e3f
000001a0: ad8e 94bd e6dc c93d 3d00 98be f94d 2640
000001b0: 5c31 483f 8b7d b5be 8953 e33f fdd4 c73e
000001c0: 92b6 e9be 2c57 bf3f a8e7 3ebf a605 1abc
000001d0: 60fc cfbe 7028 113e b194 45be 8b07 b6be
000001e0: 5a54 2ebf a019 0abf c9ed 86ba 685e 573f
000001f0: 9952 843e 8b46 293f 2e22 043f a4ca d83e
00000200: 9295 b7bd 4017 37be b8e2 143f d076 b9be
00000210: 129f 3f3f da3c 633f 18e8 5c3f e4fc 303f
00000220: de5a a03f 1110 33bf 3d66 9f3f e073 8cbf
00000230: 30d2 44be 002e 0840 3180 8fbf 7732 073f
00000240: e38e 4cbe b353 82bf 93b9 883f 836e 9e3f
00000250: 31d2 0440 3441 03be 3607 483f 86a8 2b3f
00000260: 0565 d73e 8a04 483c 527e c4be a461 cabe
00000270: 0cd0 253f 0363 4b3f ceae 873f b001 74be
00000280: e197 90bf e443 3240 91ba 01bf cfae aebf
00000290: 5dbd 393f d631 9b3f 7c90 f1be 57a6 273f
000002a0: ad73 6e3f 04c0 933e b1fb c33e 7ef7 193f
000002b0: c09e ea3e 31fe aebe ce9d 1a3f 9828 613f
000002c0: 0694 4a3f 834c 853f a92d 3c3e cbbf 5a3f
000002d0: 0795 ba3f 1359 e83f eb62 94bf a2af 15c0
000002e0: fe6a e0bd c6d5 b3bf ca78 cebf 5941 2a3e
000002f0: 4794 bc3f b04a 7a3e 739c 4d3e 91d9 56bf
00000300: 592a ccbf 4dc7 b33f 2e80 c03e 6065 a0bf
00000310: cd5f d03f 9be9 c8bd 7c30 e9bf 0b04 ca3f
00000320: 3536 e13f 4fac 183f 387d a63c 9573 963f
00000330: 6c2b fc3e a22e 703f 9c94 a9bf 85be 5d3f
00000340: 844c 8fbf 1694 96be 7c99 c63f b262 ed3f
00000350: fbcc 6ebe 756a 8fbf b08c d53e 9244 6e3f
00000360: 8648 a33d 37fe 0d3e a48e 8ebd ade9 3d3f
00000370: 5a2f 853f 2ce1 86be 7389 043e 97b2 ed3e
00000380: 7684 2bbe fd7b 763f 2359 e23f 920a eabe
00000390: 3f88 593f 37ef c0bf 912a c53f 9f89 2bbf
000003a0: aa81 d63f f184 4f3f 65e3 d2be 3fe5 4340
000003b0: b9eb 3e3e ee49 e93f a2d5 36bd 9594 753f
000003c0: 539b 033f baae 623f d5b7 0b40 540e e93f
000003d0: a308 08bf f04a 463f f0b7 763f 7e82 413f
000003e0: d4ad 6fbf d1cb 3fbf 4061 45bf 35ca de3f
000003f0: 2afd 953f d325 373f 8bd9 f8bd 8e06 c6bf

embedding_item.weight f4 [11236, 8]
-0.28494567 0.08251559 -0.8422586 -1.2776593 0.40760913 0.5551479 0.94919014 0.20653915
-3.2435336 1.7100679 2.2230604 -0.61534834 -3.9075403 -0.2757578 1.6752138 3.0826416
2.0648975 -1.3598348 -0.52621263 -1.1700435 -0.56566787 -1.8035046 0.1680659 -0.10343571
-0.8903437 0.13770016 -0.8095329 -0.91583526 0.82862103 1.901677 0.7491691 -0.4094441
-1.3166555 -0.022463769 -1.1800307 0.48801503 0.047224395 -1.3105137 -1.0333259 0.11242715
2.2324762 -0.6944137 5.3418193 2.4165828 -2.4116945 1.4859973 2.4942257 1.2414953
-2.1639674 -0.4395463 -0.24513981 -1.8182666 -0.58877707 2.519975 2.3393447 -0.9097316
-0.09162098 -2.4154923 -1.1859245 -0.4514314 1.9872028 -0.008878212 -0.31344742 -1.6468105
1.7219055 0.3196851 4.820391 2.220832 -1.500126 1.1942934 1.2887657 0.07163382
2.333949 -0.9754527 5.094482 2.4315233 -2.9258869 1.4725933 2.4038908 1.0795503
2.2484288 0.21743062 -2.137167 -0.8580899 0.3765561 -2.5696697 2.0338905 -0.33426663
0.72379965 -0.45431095 -0.9168428 1.4047469 0.27185363 -0.20306899 0.31792152 -1.9024353
-2.0894191 -1.7109162 -4.0630646 2.1359801 -0.094638966 -0.86068666 -1.0340652 -0.39814046
0.065179445 0.3050019 -0.39674357 0.06378085 -0.091120124 -0.13310096 1.2682406 0.19804695
1.2569455 0.3381058 3.9574068 0.45335954 3.740178 -0.5399705 -0.9266601 1.4571372
-1.0407934 0.15876426 0.71617234 0.111134455 -0.055446804 -0.5595489 0.5097459 0.36222154
-0.33141342 -0.99122965 -0.26868483 -0.035182808 -0.4822483 -1.1796952 -0.805756 -0.05225635
0.68665284 0.8277043 -1.9415581 1.1980408 -2.6111715 -0.86494654 -0.8179788 -2.967367
-1.5448127 -1.3603333 -0.7702695 0.9155864 0.74176747 1.0906314 0.28265598 0.39153796
2.0565948 -0.04232917 5.945753 2.7421145 -2.09533 1.7183511 2.7889333 1.7522769
-0.31029284 0.7019198 1.4441407 -0.18990782 0.38035592 -1.1024908 1.1653103 0.43439066
0.51401865 0.24998564 -0.4322657 1.150634 -0.17408304 -1.1108468 0.3424456 -1.874099
-3.6609213 -1.2633824 -1.5804505 -2.0474641 0.59889716 -3.897438 -1.7859236 1.3168843
-1.1797991 0.51815003 -1.2172146 0.83414805 -0.22801253 -1.1141146 -0.7359519 0.3118766
-0.8193977 -2.4315925 1.1267334 -0.9893801 1.4026908 0.5789919 0.28188986 -1.05414
-0.31308895 -0.30612388 -1.131671 -0.92664284 0.23841433 0.81858885 -1.2022197 0.32955748
1.378177 -1.2872217 -0.9728786 -2.143221 -0.33706892 -0.109921545 -2.3712304 -0.39948928
-0.32850686 -0.9190536 -0.32284984 0.37962312 -0.019366115 0.52366656 0.359694 0.1318011
-3.723893 0.8034068 3.3720975 0.23078369 -2.5290482 -0.74912643 1.8419989 -0.17692491
-2.536172 1.5295892 0.7220191 0.9822091 2.1475098 0.9185113 1.2280777 1.6313757
-1.394635 0.56958973 0.40017164 -0.65079045 -1.5662057 -3.3507347 0.4525456 -1.9131117
1.1915683 1.6094322 -1.2037675 4.1888533 -2.932169 -5.0601077 1.4586871 -2.2189696
00000000: 66e4 91be effd a83d 429e 57bf 578a a3bf
00000010: 25b2 d03e 2c1e 0e3f 20fe 723f 007f 533e
00000020: 0e96 4fc0 81e3 da3f 9f46 0e40 7887 1dbf
00000030: 2415 7ac0 2030 8dbe 686d d63f 004a 4540
00000040: 4827 0440 110f aebf dfb5 06bf fcc3 95bf
00000050: 9ccf 10bf 3dd9 e6bf 7819 2c3e 1ad6 d3bd
00000060: 91ed 63bf 4501 0d3e 8c3d 4fbf 2e74 6abf
00000070: 8220 543f 276a f33f 8cc9 3f3f a8a2 d1be
00000080: 2b88 a8bf f005 b8bc 3f0b 97bf 1bdd f93e
00000090: 5e6e 413d eabe a7bf 0644 84bf 3540 e63d
000000a0: e4e0 0e40 19c5 31bf 2ff0 aa40 4ba9 1a40
000000b0: 3459 1ac0 2935 be3f 65a1 1f40 51e9 9e3f
000000c0: 717e 0ac0 360c e1be ee05 7bbe f6bc e8bf
000000d0: 18ba 16bf 4547 2140 d3b7 1540 2ce4 68bf
000000e0: c8a3 bbbd 6d97 1ac0 60cc 97bf 0422 e7be
000000f0: a95c fe3f ec75 11bc 2e7c a0be b0ca d2bf
00000100: 6667 dc3f c4ad a33e a540 9a40 1d22 0e40
00000110: 2104 c0bf 9bde 983f 46f6 a43f c1b4 923d
00000120: 6c5f 1540 45b7 79bf ff05 a340 149e 1b40
00000130: bb41 3bc0 f07d bc3f 59d9 1940 b42e 8a3f
00000140: 42e6 0f40 22a6 5e3e 58c7 08c0 c8ab 5bbf
00000150: f6cb c03e 7875 24c0 432b 0240 ff24 abbe
00000160: ef4a 393f 729b e8be 36b6 6abf bfce b33f
00000170: 6630 8b3e 51f1 4fbe 9cc6 a23e 0083 f3bf
00000180: 0bb9 05c0 4dff dabf a004 82c0 e6b3 0840
00000190: 13d2 c1bd f655 5cbf 405c 84bf 11d9 cbbe
000001a0: cd7c 853d 3629 9c3e f921 cbbe 899f 823d
000001b0: 309d babd 9e4b 08be b555 a23f d2cc 4a3e
000001c0: 97e3 a03f 341c ad3e 2746 7d40 be1e e83e
000001d0: 145f 6f40 823b 0abf 9939 6dbf 7983 ba3f
000001e0: b838 85bf 1993 223e 1257 373f 769a e33d
000001f0: 301c 63bd 993e 0fbf b57e 023f 1a75 b93e
00000200: 05af a9be 3ac1 7dbf 0f91 89be d91b 10bd
00000210: 40e9 f6be 4100 97bf 0646 4ebf c10a 56bd
00000220: 7bc8 2f3f 6ee4 533f fa84 f8bf 6759 993f
00000230: 6f1d 27c0 236d 5dbf 0f67 51bf 57e9 3dc0
00000240: 6cbc c5bf 671f aebf 6230 45bf df63 6a3f
00000250: 79e4 3d3f cf99 8b3f 49b8 903e aa77 c83e
00000260: 409f 0340 5a61 2dbd 9c43 be40 ce7e 2f40
00000270: e319 06c0 eef2 db3f e27d 3240 9c4a e03f
00000280: b4de 9ebe 04b1 333f 9ad9 b83f 3277 42be
00000290: 03be c23e 6b1e 8dbf e328 953f 7468 de3e
000002a0: ba96 033f 3cfc 7f3e ee51 ddbe fa47 933f
000002b0: d342 32be 3a30 8ebf 0855 af3e 7ae2 efbf
000002c0: 894c 6ac0 84b6 a1bf 344c cabf a709 03c0
000002d0: 5351 193f a06f 79c0 2599 e4bf aa8f a83f
000002e0: a803 97bf 7ba5 043f b0cd 9bbf ba8a 553f
000002f0: 1e7c 69be 4f9b 8ebf 5867 3cbf 4aae 9f3e
00000300: 0cc4 51bf 369f 1bc0 cd38 903f 0448 7dbf
00000310: 5f8b b33f d038 143f de53 903e 0fee 86bf
00000320: 324d a0be 45bc 9cbe 98da 90bf 7738 6dbf
00000330: e322 743e 0a8f 513f 56e2 99bf c2bb a83e
00000340: 1b68 b03f aec3 a4bf 920e 79bf 882a 09c0
00000350: 4c94 acbe 8c1e e1bd 3dc2 17c0 dc89 ccbe
00000360: 0d32 a8be 1947 6bbf 934c a5be f65d c23e
00000370: b0a5 9ebc 030f 063f d029 b83e def6 063e
00000380: 4354 6ec0 11ac 4d3f 72d0 5740 8f52 6c3e
00000390: eddb 21c0 c0c6 3fbf 9fc6 eb3f ce2b 35be
000003a0: a450 22c0 94c9 c33f 3ed6 383f 0e72 7b3f
000003b0: cd70 0940 8e23 6b3f a631 9d3f ebd0 d03f
000003c0: 6683 b2bf a2d0 113f 4ce3 cc3e 349a 26bf
000003d0: 6e79 c8bf 7072 56c0 0fb4 e73e d8e0 f4bf
000003e0: 4f85 983f e001 ce3f 0e15 9abf 160b 8640
000003f0: a8a8 3bc0 67ec a1c0 42b6 ba3f 9903 0ec0

affine_output.weight f4 [1, 8]
2.5823007 2.3979235 -2.3828812 2.4445295 -2.371792 -2.3304236 2.3517542 -2.3496811
00000000: 6a44 2540 9477 1940 2081 18c0 2c73 1c40
00000010: 71cb 17c0 a925 15c0 2483 1640 2d61 16c0
