checkpoints/t1_s1_toytest.model (torch, 625823 bytes, 3 tensors)

embedding_user.weight f4 [9164, 8]
000000 af fc 92 3f 5f a2 0b 40 ee 4c fb be 5f 12 56 3f
       1.1483363 2.1817853 -0.4908213 0.8362178
000010 66 ee 6b bf 6e 94 09 bf a1 62 1b 40 71 18 e2 bf
       -0.9216064 -0.5374211 2.4278948 -1.7663709
000020 86 29 f8 3f e7 e7 ba 3e 2d 12 3f bf 0c 08 98 3f
       1.9387672 0.36505052 -0.7463711 1.1877456
000030 2f d9 96 bf e5 2e 0c c0 74 72 0d be b0 dd 52 bd
       -1.1785029 -2.1903622 -0.13813192 -0.05148095
000040 9b c2 05 be 45 e9 cd 3e 62 2f a0 bf 87 4e d0 3f
       -0.13062517 0.40217033 -1.251446 1.6273965
000050 02 26 1b bf 91 29 a5 3f 52 c4 a7 bf 90 ee 0f c0
       -0.6060487 1.290331 -1.3106787 -2.2489357
000060 6a 04 b1 3f 7d 1b e0 be 0b 6c d4 bf d3 fe 02 3f
       1.3829472 -0.43770972 -1.6595472 0.5117008
000070 66 d1 0e bf 2b bc 0e c0 ae 9c c8 3e 57 9b 73 c0
       -0.55788267 -2.2302349 0.39182037 -3.8063562
000080 d4 9a 78 3e 74 6e 85 3f 32 75 af 3f 4e 84 e1 bd
       0.24277812 1.0424333 1.370764 -0.11011563
000090 ef c4 9b bf 8b 33 c8 bf 43 c4 5f bf 31 3f c8 bf
       -1.2169474 -1.564073 -0.87408847 -1.5644284
0000a0 ad 15 d7 3e ca 5d 5b be 65 35 89 bf a1 49 81 bf
       0.42008725 -0.21422496 -1.071942 -1.0100595
0000b0 17 0b 32 bf 05 9e 8f bf 3b 2b 99 bf e1 86 53 bf
       -0.6954817 -1.1220099 -1.1966318 -0.82627684
0000c0 c7 c8 5d be 98 ca 33 bf 5e 03 0b 3f f3 ee 31 c0
       -0.21658622 -0.7023101 0.5430201 -2.7802093
0000d0 d6 2c 6b bf d7 9b 8d 3f ef 6c a3 3f d6 34 30 bf
       -0.9186529 1.1063184 1.2767619 -0.6883062
0000e0 aa bd 01 3f ea 10 b6 3f b5 ed 8e 3f c7 50 12 40
       0.5068003 1.4223912 1.1166292 2.2861803
0000f0 e7 13 55 be 9b 51 2e bf cd ea 61 3e b2 5e 1c c0
       -0.20808373 -0.6809327 0.22062226 -2.4432797
000100 c2 7c 35 be 87 7f 2b bf 3d 41 db 3f bf 7c cf be
       -0.17723373 -0.66991466 1.7129284 -0.4052486
000110 86 59 97 3e c3 49 80 3f 12 24 2e bf 92 0b cc bf
       0.29560488 1.002251 -0.6802379 -1.5941031
000120 ab 09 08 3f d9 4d fc 3f 0b 6d e1 be a4 f5 23 c0
       0.5313975 1.9711257 -0.44028506 -2.5618677
000130 d9 a4 b8 bf f6 de 42 3f e8 de 91 bf f4 2b b4 3d
       -1.4425308 0.7612146 -1.139615 0.08797446
000140 55 a6 12 3f 26 51 09 40 ea 4b 0d 3f 9e 62 ed be
       0.5728505 2.145578 0.5519396 -0.463643
000150 98 be 81 3f 0a 86 a7 3f 9d d4 cc bf 9a 78 8d be
       1.013629 1.308778 -1.6002384 -0.27631074
000160 72 e8 86 3f 34 0f d2 3f ba 5a 10 3f da 2f 98 be
       1.0539687 1.641089 0.5638844 -0.29724008
000170 8c 4f fa be a3 b9 63 bf 64 3b 14 be 74 59 9b bf
       -0.48888814 -0.88955134 -0.1447578 -1.2136674
000180 04 16 65 bd 7a fd 06 3f 69 18 31 bf 61 20 16 be
       -0.0559292 0.52730525 -0.6917787 -0.14660789
000190 45 4c 71 bf f3 02 4c 3e d8 20 c7 bf 21 c2 d3 bf
       -0.94257003 0.19923 -1.5556898 -1.6543618
0001a0 be c3 7e 3f c6 3e de bf ec 73 32 be 49 d2 fe 3e
       0.9951743 -1.7362907 -0.17427033 0.4976981
0001b0 b5 33 12 be af 17 39 3f 9f 28 3a bf e3 8e c0 bf
       -0.14277537 0.72301763 -0.7271823 -1.5043606
0001c0 90 03 b3 be 12 a1 f3 be 46 64 0c 40 09 11 2a 3f
       -0.34963655 -0.47583824 2.1936202 0.66432244
0001d0 d8 9a 6d bf 2c b0 eb bf 8b df 8d bf 76 3d d8 3d
       -0.928144 -1.8413138 -1.1083845 0.10558598
0001e0 7f 3b 9f be 29 0c 28 3e 44 d9 35 3f d0 b1 ca 3f
       -0.3110008 0.16410889 0.71034646 1.5835514
0001f0 d8 72 32 40 fc 6e cc 3f 52 23 9d 3f 42 dd 70 c0
       2.7882595 1.597137 1.2276404 -3.7635045
000200 95 a6 ee 3d 6f 0b 48 bf 33 ef 80 bf 05 21 48 c0
       0.11652867 -0.78142446 -1.0072998 -3.1270154
000210 27 3c 0c 3f a3 6a f1 bf 5b 1f 13 bf 24 98 22 bf
       0.54779285 -1.8860668 -0.5746972 -0.635134
000220 61 c4 67 bf bd 40 98 3f 62 55 c3 be 0c e8 8a be
       -0.90534025 1.1894757 -0.3815108 -0.27130163
000230 3d 74 03 40 1e 3e 1f 3f 65 c3 a8 bf 19 09 54 c0
       2.0539696 0.6220416 -1.318463 -3.3130553
000240 56 b8 0b 3f a2 08 ca bf cc 80 99 bf 46 ee 24 bf
       0.5457815 -1.5783885 -1.1992431 -0.64426076
000250 48 4f 2a c0 7f 7c 0d bf 99 6e ac bf 69 2d 70 c0
       -2.661089 -0.5526809 -1.3471252 -3.7527716
000260 d3 17 59 bd 61 74 df be 22 45 bd 3e 06 86 fd be
       -0.053001236 -0.43643478 0.36966807 -0.49516314
000270 18 b8 45 3e 9c d2 d8 be 0e 81 8e bf b8 64 09 3f
       0.19308507 -0.42348182 -1.1133134 0.5366931
000280 1c 59 08 bf e0 7e a0 bf db 30 f8 3e 8b 42 af 3f
       -0.5326097 -1.2538719 0.48474774 1.3692182
000290 3d ea ed bf fc 64 09 bd e9 2b 8d bf 50 9d eb bf
       -1.8587109 -0.03354357 -1.1029025 -1.8407383
0002a0 54 b2 01 40 df 7b d3 be 65 f1 92 be 3a 4e 70 bf
       2.0265093 -0.41305444 -0.28699794 -0.93869364
0002b0 7e df ed 3d 3a b0 d9 be 90 e3 f1 3e 2b b3 4d bf
       0.116148934 -0.42517263 0.4724393 -0.80351514
0002c0 7f 1c 2f 3f 96 f1 b0 bd 78 4b 96 bf 1f cf 23 bf
       0.68402857 -0.08639829 -1.1741781 -0.63987917
0002d0 14 ab 3c c0 53 7b 51 3f a7 8a 1c c0 91 e6 97 be
       -2.9479418 0.818288 -2.4459627 -0.29668096
0002e0 93 67 84 3f f8 5b 0e 40 cc 03 2e 40 aa 59 04 c0
       1.0344108 2.2243633 2.7189817 -2.0679727
0002f0 6b 58 ba bf 29 2e aa bf 43 10 9c bf ce 37 00 bc
       -1.4558233 -1.3295337 -1.2192463 -0.007825805
000300 52 fe 7e 3e 44 bf 2f 40 07 44 ee bd 5e 65 d1 bf
       0.24901703 2.746049 -0.11634069 -1.635906
000310 47 c4 b1 bd b5 57 92 3f 9c 6a d6 3e 24 3b ba bf
       -0.08680015 1.1433016 0.41878211 -1.4549298
000320 62 b8 81 3f 36 7f d2 be e3 c5 d5 3e 0d eb 12 c0
       1.0134394 -0.4111268 0.41752538 -2.2955964
000330 65 ab 92 3d cc 86 a1 bf a2 10 ed bf 85 20 e8 bf
       0.07161597 -1.2619262 -1.8520701 -1.8134924
000340 c6 cc 09 40 a7 b1 4d be 8d 9f 53 bf 86 59 41 c0
       2.1531234 -0.200873 -0.8266533 -3.021089
000350 6f f1 eb bf e4 a2 c2 bf fe 63 e3 3f 23 f4 65 be
       -1.8433055 -1.520596 1.776489 -0.22456412
000360 d2 7f ab be 35 fd 03 bf cd 9b d2 3d ad 9a 3c bf
       -0.33495957 -0.5155824 0.10283623 -0.73673517
000370 d7 c5 ca bf 09 b9 c9 be 23 38 f4 bf 36 d6 05 c0
       -1.5841626 -0.39398983 -1.9079632 -2.0911994
000380 a9 22 28 bf d0 21 b7 3f 53 6b 09 be 98 0f 04 bf
       -0.6567789 1.4307194 -0.13419847 -0.51586294
000390 5d 65 90 bf 17 82 92 bf 2d cb 30 3f c0 e4 dd bb
       -1.1280934 -1.144595 0.6906002 -0.006771654
0003a0 cc 40 0c 3f 32 12 97 be 80 b7 3b 3e 5b c1 3a 40
       0.5478637 -0.2950607 0.18331718 2.9180515
0003b0 11 89 69 c0 34 b0 ad bf a5 de 08 bf 3c 7d 07 c0
       -3.6489909 -1.3569398 -0.5346473 -2.1170187
0003c0 9d 45 c1 3f 3a 24 b0 3f 9c 26 12 3e 66 06 ad bf
       1.5099369 1.3761055 0.14272541 -1.3517578
0003d0 59 ce 12 bf 2b fa 92 be 47 77 bb 3e c3 62 7e bf
       -0.5734611 -0.28706488 0.3661444 -0.9936945
0003e0 9f 65 de 3f f5 02 dc be 08 5e d0 3f 49 ec 35 3f
       1.7374762 -0.42971006 1.6278696 0.7106367
0003f0 b8 7c d8 bf 8a ad a9 3f cc 13 b8 3e 08 67 32 bf
       -1.6913061 1.3256085 0.35952604 -0.69688463

embedding_item.weight f4 [10341, 8]
000000 65 f9 37 3f 1e ea d1 be cc b7 5b be 87 aa 08 3f
       0.7186492 -0.4099893 -0.21456832 0.53385204
000010 2a 6d 7c be 1c f1 b8 bf 90 8c 88 3f 15 a7 23 be
       -0.24651018 -1.4448581 1.0667896 -0.15981705
000020 65 00 70 bf 78 22 24 3f 43 e6 87 be 5c 3a 1b 40
       -0.937506 0.64115095 -0.26542863 2.425437
000030 de cf e4 3e c6 50 32 bf 13 2d a7 bf 60 38 a1 3f
       0.4468984 -0.696545 -1.306063 1.2595329
000040 85 85 ed bf 1f f4 7b bf 4f 88 67 bf 43 74 a0 3e
       -1.8556372 -0.98419374 -0.90442365 0.313387
000050 28 bb ac 3f 73 98 b4 3f 63 39 71 3c ca 74 bd 3e
       1.3494616 1.4109024 0.014723155 0.37003165
000060 9e e5 b1 3e 49 f6 cd bf 15 3f d2 be 64 1d 71 3f
       0.34745497 -1.6090785 -0.41063753 0.9418547
000070 f1 b6 66 3f ec f0 06 c0 01 af 89 40 fb 97 77 bf
       0.90122896 -2.1084547 4.302613 -0.9671628
000080 83 95 eb bc a0 d1 67 40 99 43 1b c0 49 72 97 3f
       -0.028757816 3.6221695 -2.4260008 1.1831752
000090 e9 27 5b c0 20 b7 a5 3d 6b 70 22 c0 a0 eb a8 be
       -3.424311 0.08091569 -2.5381114 -0.32992268
0000a0 99 e1 5a bf a0 a1 e4 bf 63 61 42 3d 7d 0f 49 c0
       -0.85500485 -1.7861824 0.047456156 -3.1415703
0000b0 20 cf 1e 3e 33 46 ba 3f 53 47 33 c0 1b 0b b9 bf
       0.155087 1.4552673 -2.8012283 -1.4456514
0000c0 ef 4e 0c c0 2d 1c b9 3f b3 03 57 40 8e 6b 34 be
       -2.1923177 1.4461724 3.3596008 -0.17619154
0000d0 16 1e a9 3e 98 d0 19 40 1e ee 43 3f 87 04 07 c0
       0.33030766 2.4033566 0.76535213 -2.1096513
0000e0 09 bb 8a 3e 5f 24 7b 3e 74 9e 31 40 40 86 08 40
       0.27095821 0.24525593 2.7752962 2.133194
0000f0 55 4c d0 bd b8 f3 16 c0 c5 1d 98 3f 2c bf 7b be
       -0.10170809 -2.3586254 1.1884085 -0.24584645
000100 5f 51 1a bf ec 73 2a c0 e6 0e 52 3f 5a dc 81 c0
       -0.6028041 -2.6633253 0.82053983 -4.0581484
000110 d9 c9 3a 3f 87 c7 dd 3e 57 da 04 c0 23 83 d9 bf
       0.72964245 0.4331629 -2.0758264 -1.6993145
000120 86 ea 59 bf 1a 57 20 c0 84 71 a7 3f a9 74 4d c0
       -0.8512348 -2.5053163 1.3081517 -3.2102454
000130 82 47 cc be ea f8 f7 3e 3b 5a 17 c0 86 6e f9 bf
       -0.39898306 0.48432094 -2.3648822 -1.9486854
000140 5e 29 4a 40 8b ac 95 3f d7 97 58 3f 6d b1 cb bf
       3.1587749 1.1693281 0.8460669 -1.5913521
000150 80 c8 62 3f b2 63 26 c0 9e 6d 79 bf 94 4b a3 3e
       0.8858719 -2.599835 -0.9743289 0.318936
000160 a6 91 e7 3f f8 d3 96 3f 00 fd bb 3f 3e 82 df bf
       1.8091323 1.1783438 1.4686584 -1.7461622
000170 dd 7c 00 40 64 47 ca 3e 51 f2 c5 3e 9f 7c 7f bd
       2.007621 0.39507592 0.38661435 -0.062374707
000180 2d 4e d9 3f 2f a2 74 c0 d1 19 25 40 20 5a 70 3f
       1.6976982 -3.822399 2.5797007 0.9388752
000190 0e d2 de be d1 bf 33 c0 d8 38 a2 bf 7a b4 6f 40
       -0.43519634 -2.8085825 -1.2673597 3.7453904
0001a0 41 81 8f 3e cb bf 45 bf f9 6a 09 3f ae bc 00 3f
       0.280283 -0.7724578 0.5367885 0.502879
0001b0 3a b6 31 3f ae cd 5a 3e 31 db cf 3d b4 44 99 3e
       0.6941868 0.21367523 0.10149229 0.2993523
0001c0 27 07 03 bf f2 e2 20 bf 81 47 59 40 12 44 dd bf
       -0.5118279 -0.6284629 3.3949893 -1.7286398
0001d0 05 88 93 3f 30 19 14 bf cb 4f 04 40 1e 57 58 c0
       1.1525885 -0.57850933 2.0673702 -3.3803172
0001e0 5d 9b 31 bf bf 1b ee bf 61 c8 48 3d ef 88 3e be
       -0.6937769 -1.8602217 0.04901922 -0.18606924
0001f0 39 40 38 3f 78 26 b0 3f 51 0f ba 3f 96 d7 23 bf
       0.71972996 1.376174 1.4535924 -0.64000833
000200 3e 79 11 bf 62 ac 24 bf 2b c4 17 bf 4e c1 16 bf
       -0.56825626 -0.64325535 -0.59283704 -0.5888871
000210 b6 90 9c be 5b 16 26 bf 65 11 0b 3f a7 88 22 be
       -0.30579156 -0.6487786 0.54323417 -0.15872441
000220 68 93 ec 3f 6f 84 b7 bf a4 c9 6e bf 58 d3 65 3e
       1.8482485 -1.433729 -0.9327643 0.22443902
000230 59 e9 52 bf 6d 4b c5 3f f4 1b b2 be fe ae 02 40
       -0.8238731 1.5413643 -0.34786952 2.0419307
000240 ad 37 77 3e 2e b5 b6 bf 4b 14 85 bf dc be 0f 3f
       0.24142332 -1.4274042 -1.0396818 0.56150603
000250 65 7b da bf e2 4b 41 3e af 26 03 40 e5 b8 13 bf
       -1.7068907 0.18876603 2.049236 -0.57704
000260 be 26 10 c0 64 3c 1f c0 84 e3 90 3f a6 01 84 c0
       -2.2523646 -2.488061 1.1319432 -4.125201
000270 fa cd 88 3e bf 70 b7 3f a8 0c 3a c0 57 03 e0 bf
       0.26719648 1.4331282 -2.9070225 -1.7501019
000280 b4 d9 b8 bf 3b 31 d8 bf 09 10 f2 3e f1 d7 b7 3f
       -1.4441438 -1.6890024 0.4727786 1.4362775
000290 e5 8f ba bf 80 1d 2c 3f 9c c7 96 3f 60 dc 67 bf
       -1.4575163 0.67232513 1.1779666 -0.9057064
0002a0 a6 38 ee 3f 66 14 1b be 92 d3 b7 3d 0b 56 eb bf
       1.8611038 -0.151445 0.08975901 -1.8385633
0002b0 10 bb 17 40 04 b8 dd bf ec 53 5f bf 65 9b 93 bd
       2.3707924 -1.7321782 -0.8723743 -0.072073735
0002c0 9e 7b 2b c0 4a 42 ae 3f b3 98 3a c0 a6 91 0b 40
       -2.67942 1.361398 -2.91557 2.1807647
0002d0 ff 8d 06 c0 8f 50 9c c0 15 25 02 c0 45 8f 21 40
       -2.1024168 -4.884834 -2.0335133 2.5243695
0002e0 45 40 0c 3e a8 b1 a1 40 23 ad c1 bf 71 cf a5 be
       0.13696392 5.0529366 -1.5130962 -0.32384828
0002f0 ca cc 15 c0 43 cf a5 bf 64 31 a5 be 1b 4d ef 3e
       -2.3406243 -1.2953876 -0.32264245 0.46738514
000300 ae db 7d 3e c2 16 07 40 d6 91 65 3f d6 c2 c4 3f
       0.24790832 2.110764 0.89675653 1.5371959
000310 9e 05 cd 3e fe c8 5e bc 23 3f f5 3e 05 56 1e c0
       0.40043348 -0.013597725 0.47899732 -2.4740002
000320 48 db 0e 3e 61 7f 32 3f 4e 6a 37 bf 2d 34 0c 3e
       0.13950837 0.69725615 -0.71646583 0.13691778
000330 1c 7c 45 3f 03 9a 92 3f 62 e8 87 3f 02 2a a4 bb
       0.771425 1.1453251 1.0617793 -0.0050098905
000340 02 fc ae bf 97 80 16 40 84 0a 7e 3e 8d 53 a0 bf
       -1.3670657 2.3515985 0.24808699 -1.2525498
000350 97 55 ec 3e c4 21 33 bf 9f 2a 56 bf 0c 62 6a 3e
       0.4615905 -0.699734 -0.83658785 0.22888964
000360 17 31 27 3f 1d f1 e9 bf 69 d7 84 bf a9 3e 63 bf
       0.6530928 -1.8276707 -1.0378238 -0.88767487
000370 34 cc 03 40 91 fd 6e 3e 76 60 9c 3f 96 9c 53 bf
       2.0593386 0.23338915 1.2216938 -0.82660806
000380 0b 65 db be e5 06 00 bf 83 2b 17 c0 4e b6 b1 3e
       -0.42850527 -0.5001052 -2.3620307 0.347094
000390 78 6a 95 be 33 97 30 c0 84 7d 85 bf c0 20 8f 3d
       -0.29182792 -2.7592285 -1.0428929 0.069886684
0003a0 ff 93 0e bf 7d ac 4d 40 7d 08 12 3e 3b 8b a1 3f
       -0.55694574 3.2136528 0.1426105 1.2620615
0003b0 69 3b 3a 3e 01 b8 a5 3f 92 9c 0e 3f ae d5 24 bf
       0.18186726 1.2946779 0.5570766 -0.6438855
0003c0 ce 42 e1 3f 39 4d a5 bf 87 fc 7c c0 c5 a2 47 3f
       1.7598512 -1.2914191 -3.952913 0.7798274
0003d0 08 27 d6 be 3e 88 18 3f 66 13 4d 3d 1e a5 f1 be
       -0.41826653 0.5958289 0.050067328 -0.47196287
0003e0 22 85 2c 40 15 ca 8e bf 78 06 ac 3f 8f 75 49 c0
       2.6956258 -1.115542 1.3439474 -3.1478002
0003f0 81 7c 0b c0 0b 99 0d 40 bc 09 f8 bf 4e c0 f0 3f
       -2.179474 2.212466 -1.9377971 1.8808687

affine_output.weight f4 [1, 8]
000000 a9 b5 2b 40 76 23 2b 40 48 cd 20 40 13 84 30 40
       2.6829627 2.6740394 2.5125294 2.7580612
000010 0a 17 36 40 50 d5 20 40 0c 94 34 40 e5 87 47 c0
       2.8451562 2.5130196 2.821536 -3.1176693
