checkpoints/t2_none_toytest.model (torch, 271967 bytes, 3 tensors)

embedding_user.weight f4 [5483, 8]
000000 74 83 91 3f 6c 22 4f bf e1 b3 ba 3f 14 95 58 be
       1.1368241 -0.809119 1.4586145 -0.21150619
000010 fa d8 93 3e 1f 8d 3e bf 43 f6 64 be 5f 95 4b bf
       0.28876477 -0.74434084 -0.22359566 -0.795248
000020 85 e7 10 3e 39 64 ad be 8e 21 80 bf 5a 11 02 3f
       0.14150818 -0.33865526 -1.001024 0.50807726
000030 9f 1f 9c bf 04 d9 97 3f a1 6c 04 bf 80 90 da bf
       -1.219715 1.1863103 -0.51728255 -1.7075348
000040 76 f2 09 bf 50 f4 28 be aa 04 1a bf 87 fa bd 3f
       -0.5388559 -0.16499448 -0.60163367 1.484208
000050 20 15 10 3c ff b9 0d be 7f b4 e1 3f 8c 00 b4 3e
       0.008794099 -0.13840483 1.7633208 0.35156667
000060 6b ad 84 3e 9b 4f 89 3e 8e c1 b5 be 22 aa 31 3f
       0.25913557 0.26818547 -0.35499233 0.6940023
000070 7b 87 b1 bf 29 1c 03 40 a2 7b 93 bf a4 4c 9d bf
       -1.386947 2.0485938 -1.1522105 -1.2289014
000080 0a 94 91 3f 65 ab 17 3d 2f 07 a6 3e a5 05 1e 3f
       1.1373303 0.03702869 0.32427356 0.6172736
000090 fd 11 74 bf 5a 8b fe bf 96 27 2c be 2f df 46 3f
       -0.9533995 -1.9886277 -0.16811976 0.776843
0000a0 5a a8 89 be 02 62 ef 3d eb 33 1f 3e eb cb 92 3f
       -0.26886255 0.116886154 0.15547149 1.1468481
0000b0 87 5b 03 be ff 84 d6 3f 44 73 85 bf 9a 2c f7 3f
       -0.12827884 1.6759337 -1.0425801 1.9310486
0000c0 f1 a6 42 bf 75 ca ea 3e d7 9f ea 3f 23 9d 9d 3e
       -0.7603598 0.45857587 1.8330029 0.30783948
0000d0 8d 46 68 3f 17 bd 12 bd 6d 7f 27 3e 45 f2 81 be
       0.9073265 -0.03582486 0.16357203 -0.2538015
0000e0 c2 b4 17 be 25 77 17 bf 0f 02 22 3f af c7 20 3f
       -0.14815047 -0.59166175 0.6328439 0.62804693
0000f0 d9 59 78 3b 3c 8e c6 3f 7c 0e e8 bd eb dc 77 be
       0.003789535 1.5512156 -0.11330888 -0.24205367
000100 0c 2c 7f 3f 3a ff f6 3e b3 89 6e bf 43 bf 8f bc
       0.99676585 0.48241597 -0.9317886 -0.017547255
000110 bc 4d d8 bf 22 3d 0e bf 1b 97 2d c0 89 14 c4 be
       -1.6898723 -0.5556203 -2.7123477 -0.38296917
000120 1e 53 c3 3f f0 b6 9e 3c 7c 5a 99 bf 06 7b 4b bf
       1.525974 0.01937434 -1.1980739 -0.79484594
000130 b2 ae 28 c0 eb c7 b4 be b6 cb 7c 3e 1b 48 e5 be
       -2.6356626 -0.35308775 0.24687085 -0.44781575
000140 72 f7 67 3f e2 63 24 be b1 25 00 3f 6f 25 ee 3f
       0.90611947 -0.16053727 0.5005751 1.8605174
000150 51 9b 5f be 2a 4b 8d bf 43 f5 c6 be 3b 5f ec be
       -0.21836592 -1.1038563 -0.38858995 -0.46166405
000160 1f 1e db be 20 26 d2 3e a7 d4 03 bf 24 b4 27 3f
       -0.42796418 0.41044712 -0.51496357 0.6550925
000170 37 83 46 bf 36 0a a3 bf 89 83 be bf 14 b9 55 3f
       -0.7754397 -1.2737491 -1.4883891 0.8348553
000180 bc 3f 25 3e 04 fc 3a 3e 5f 04 ba 3f 93 02 77 3f
       0.16137594 0.18260199 1.4532584 0.964883
000190 19 c3 bb bf f7 aa 5c bf d8 eb 87 bf 8e b5 3a be
       -1.4668914 -0.8619837 -1.0618849 -0.1823332
0001a0 3d 8b 90 3f 50 d2 cb 3f ff 99 fc bc 97 75 e3 be
       1.1292492 1.5923557 -0.03083515 -0.4442565
0001b0 21 89 1a 3f c1 b6 0b bf 09 cd 95 bf ab 73 dd bf
       0.6036549 -0.54575735 -1.1703197 -1.7300924
0001c0 71 49 86 3f 97 41 a8 3f 9d e6 68 3e 75 79 90 3f
       1.0491163 1.3145016 0.22744222 1.1287066
0001d0 62 c0 25 3d 04 33 3d 3f 7b e6 50 3f 13 c0 ec bf
       0.040466674 0.7390597 0.81601685 -1.8496116
0001e0 e6 e8 2c 3e 01 f4 14 40 8e d2 80 bf e4 64 bf 3e
       0.16885719 2.3273928 -1.0064256 0.3738166
0001f0 26 72 65 bf b4 3e 8c 3e ec 05 24 be ec 53 6b bf
       -0.896273 0.2739159 -0.16017884 -0.9192493
000200 19 50 f0 3b 17 e8 e4 3e 69 69 9b 3f 61 11 19 3f
       0.007333767 0.4470832 1.2141544 0.59792143
000210 51 90 c3 bf 25 1c 90 bd a9 10 7f be 52 f5 9a 3e
       -1.5278417 -0.07036618 -0.24908699 0.3026529
000220 b6 29 c6 bf 98 56 58 3f 2e e2 a2 3e 21 4c 00 3f
       -1.5481479 0.8450713 0.31813186 0.50116163
000230 7e 7f 33 bf 9f ca dd be a9 11 c3 3e 02 36 c1 be
       -0.7011641 -0.4331865 0.3809941 -0.37736517
000240 68 4a 98 3f a6 01 f3 3f 11 85 cb bf d0 96 b0 3f
       1.1897707 1.8984878 -1.5899984 1.3796024
000250 4c 69 a8 3e 8a b8 22 3f a1 50 4f 3e 90 bd 8d 3e
       0.32892835 0.63562834 0.20245601 0.27683687
000260 72 07 27 bf 45 55 95 bd 97 2f 77 bf 3e 11 d3 bd
       -0.65245736 -0.072916545 -0.9655699 -0.10306023
000270 33 70 4e bf 40 4a 5b be 1f b8 71 bf 9f f2 38 be
       -0.8063995 -0.21415043 -0.9442157 -0.18061303
000280 5e 33 3f bf 36 08 36 c0 8a da 08 3f 68 ff cc 3d
       -0.74687755 -2.8442512 0.53458464 0.100096524
000290 c9 7a 7c 3f c9 cf 17 bf 13 89 8a 3e 4e 34 9a be
       0.98624855 -0.5930143 0.27057704 -0.3011803
0002a0 74 18 01 3f 8b 0b 07 3e b7 ee 4e 3d a8 e7 e9 3f
       0.5042794 0.13187997 0.050520625 1.8273821
0002b0 62 66 17 3d ed 6d 10 be 9f 71 94 3f 02 57 1d 3f
       0.036962874 -0.14104433 1.1597174 0.6146089
0002c0 22 d4 38 3f 34 41 17 3e 26 6c 10 bf 7e 6b a3 3f
       0.7219869 0.14770967 -0.5641502 1.2767179
0002d0 da 78 75 bf 3b 98 67 3f a0 d2 53 be e6 07 43 3e
       -0.9588753 0.9046666 -0.20685816 0.19045982
0002e0 e1 6b a3 bf dd 96 d0 bc 3d 54 5d be 34 05 bc 3e
       -1.2767297 -0.025462562 -0.21614166 0.3672272
0002f0 bc 9b 9c be ee da 1c be cf 05 44 bf 0a 50 80 be
       -0.30587566 -0.1531789 -0.76571363 -0.25061065
000300 d6 74 c5 be 8b 79 17 bf b3 8b bf bf c8 21 b8 3f
       -0.385657 -0.59169835 -1.4964508 1.4385309
000310 f0 fa bc be f6 34 56 be 0f a9 3e 3f f7 a4 b1 be
       -0.369102 -0.2091864 0.7447671 -0.3469617
000320 94 cb 4d 3e 40 39 01 be 8b 8f ad 3f d9 bb d3 3e
       0.2009719 -0.12619495 1.3559431 0.41354254
000330 24 95 f2 be d4 da e4 be 02 f9 6b 3f 1c 32 82 be
       -0.4737941 -0.44698203 0.9217683 -0.25428855
000340 7e 9a a9 3d c2 9e 1b bb 22 53 d5 3f 36 07 91 3f
       0.0828142 -0.002374575 1.6665995 1.1330326
000350 40 6e a7 be e9 44 6d bf 5e ca cf be b3 3f ec be
       -0.32701302 -0.92683274 -0.4058408 -0.4614235
000360 20 45 15 bf 86 13 9d 3f d8 5a ed be 17 4a f6 be
       -0.583086 1.2271583 -0.4635837 -0.481034
000370 6f 83 cc 3e 93 2a 57 3f a3 11 19 bf bc 39 8b bf
       0.39944026 0.8404934 -0.59792536 -1.0876994
000380 97 3b ac 3f a3 dc 29 bf 4d 04 3b 3d 04 3e ef bd
       1.3455685 -0.6635229 0.0456584 -0.116817504
000390 7d d6 a8 3e d6 9c 5b 3e 42 b5 0b 3f eb 0b 2b 3d
       0.32976142 0.21446547 0.5457345 0.041759413
0003a0 c9 9c fd bf 00 56 c3 bf 80 96 04 bf 94 0a b3 3f
       -1.9813472 -1.526062 -0.51792145 1.3987603
0003b0 f1 0a 69 3f 03 96 e0 3f fe ab ff 3e 93 0c d8 3e
       0.9103232 1.754578 0.49935907 0.42197093
0003c0 7a e6 85 3e bb 54 0f 3f 50 25 18 be db 30 7b 3f
       0.26152402 0.55988663 -0.14857984 0.9812142
0003d0 65 64 2f 3f e8 a5 28 3f b5 d8 c6 3e 9d c4 5f bf
       0.68512565 0.6587815 0.3883721 -0.87409383
0003e0 c4 ee bc 3d 36 f2 ba 3e c4 45 af 3d 1a 53 4c 40
       0.092252284 0.36512917 0.085582286 3.192572
0003f0 b4 11 f4 bf 3f b1 a2 3f 2e 98 ef be 73 22 ab 3d
       -1.9067903 1.2710341 -0.4679579 0.0835618

embedding_item.weight f4 [2963, 8]
000000 90 8a e6 bd 33 a6 a8 bf 07 e3 25 3e 39 ed 8f bf
       -0.112568974 -1.317572 0.16199885 -1.124427
000010 2c 39 b2 3f 6e a2 10 bf 00 6d 52 3f 56 ac 0f be
       1.3923697 -0.5649785 0.8219757 -0.14030585
000020 64 3c 2f c0 03 5b d9 bf 75 64 42 bf b1 56 99 3f
       -2.738061 -1.69809 -0.75934535 1.1979581
000030 ad 0a 0c 3f 29 27 04 40 94 cb e0 3f 96 d7 1d 40
       0.5470379 2.0648901 1.7562127 2.4662833
000040 89 ee 3e be d3 24 a7 3e 93 04 7f 3e 08 54 0a be
       -0.18645681 0.32645282 0.24904089 -0.13508618
000050 92 1c 4d bf 6b 86 77 bf df 0d 89 bf d7 1d 83 be
       -0.8012172 -0.9668948 -1.0707358 -0.25608703
000060 8b bd ab 3f bf 25 af 3f a1 69 94 3f e2 35 e1 bf
       1.3417219 1.3683394 1.1594735 -1.7594569
000070 26 36 03 c0 f4 9f 7e 3f b2 f8 c9 3e ce 84 ce 3f
       -2.05018 0.9946282 0.39447552 1.6134279
000080 fd d2 98 be a1 fb f5 be 2d bd 24 be 89 cc fb bb
       -0.2984847 -0.4804354 -0.1608779 -0.0076842946
000090 30 40 05 c0 5d e8 06 40 27 37 f8 be c2 9f 60 3f
       -2.0820427 2.1079323 -0.48479578 0.8774377
0000a0 42 ec fd be 95 e8 98 3f 7b 04 2c 40 73 c4 da bf
       -0.49594313 1.1945978 2.6877735 -1.7091202
0000b0 e1 e4 19 bf 3d 46 3a 3f 28 83 92 3f 2b d8 ba bf
       -0.60114866 0.72763425 1.1446276 -1.4597219
0000c0 39 ee dc 3f ea 42 55 bf 97 64 8f 3f b9 36 40 3f
       1.72602 -0.8330523 1.1202573 0.750835
0000d0 5f 10 2f 3e 51 52 84 bd 35 ac a5 bf f3 cb 34 3f
       0.17096089 -0.06461013 -1.2943178 0.706237
0000e0 3d d8 8e bf c2 93 b3 3f 6c fb 79 3f 09 59 c1 bf
       -1.1159741 1.4029467 0.97649264 -1.5105296
0000f0 34 8a 62 bf c1 ee 97 bf 54 92 07 3f d3 b0 f1 3f
       -0.8849213 -1.1869737 0.52957654 1.8882087
000100 48 4f ef be 9d 9c 61 bf 09 34 59 bf 78 cf 57 3f
       -0.46740174 -0.881296 -0.84845024 0.8430095
000110 f2 4d 4f be 12 d5 08 bf 10 8e 32 3f ba 6e b8 bd
       -0.20244578 -0.5345012 0.6974802 -0.090054944
000120 f7 dd 43 c0 b6 62 45 40 d3 44 9a 3f c3 85 88 be
       -3.0604227 3.0841498 1.2052253 -0.26664552
000130 9a e9 2b c0 2a f3 5e bf 1a 14 e2 3f f1 17 09 40
       -2.686133 -0.8708979 1.7662385 2.1420863
000140 5f dc 72 be d0 d7 12 bf c1 4d 1a 3f 47 80 b0 be
       -0.23716877 -0.57360554 0.60274893 -0.34472868
000150 88 b9 9c be 95 c9 15 3f 48 95 8b 3d 5c a7 ac 3e
       -0.306103 0.58510715 0.068155825 0.33721435
000160 ba 2a d2 bc f3 1d 4e c0 dd db f4 3f 50 de 36 3e
       -0.02565514 -3.220578 1.9129597 0.17858243
000170 3c fa 94 be 2a cf a8 3f 04 9a dc 3f aa c7 e2 be
       -0.29097164 1.3188221 1.7234502 -0.44292957
000180 89 7f 0c 40 c7 a6 3a b9 ce 1d 7e be 5d 00 2f c0
       2.1952841 -0.00017800472 -0.24816057 -2.7343972
000190 36 e4 71 bf 32 56 1a c0 1d 8a 0e 40 e9 54 07 40
       -0.9448885 -2.411511 2.2271798 2.1145575
0001a0 93 48 81 bf e8 cb 91 3f 2d 24 92 3f 7f 10 42 3e
       -1.0100273 1.1390352 1.141729 0.18951605
0001b0 10 0c 00 40 b7 25 04 3f 94 4b 76 be be 03 b9 be
       2.0007362 0.5162005 -0.24052268 -0.36135668
0001c0 56 d3 a5 be 95 09 14 3f 7b a4 85 bd 7c 96 26 bf
       -0.323878 0.5782712 -0.06525513 -0.6507337
0001d0 99 1e 85 3f f7 27 bf 3f 40 e5 60 bf 15 2f 0b 3f
       1.0399963 1.4934071 -0.8784981 0.54368716
0001e0 a7 82 cd bf 24 dc 2d 3f b7 85 44 be 02 8d db bf
       -1.6055497 0.6791403 -0.19191633 -1.7152407
0001f0 ea ca 0d 40 04 97 08 c0 d1 81 b5 3e f4 c8 af 3f
       2.21551 -2.1342173 0.35450605 1.3733201
000200 df 62 68 3f 9f 1d f0 3e 2d cb ee be da 95 83 3f
       0.90775865 0.468976 -0.46639386 1.0280106
000210 a6 33 ab bf 64 0d 5a be 9b e2 37 3e 74 65 8b bf
       -1.3375137 -0.2129417 0.17957537 -1.0890336
000220 73 85 d7 3f 92 6f db be c1 5c ba 3b 1d 4c 17 3f
       1.68376 -0.4285856 0.0056873267 0.59100515
000230 55 9b 31 be 19 da b3 3f 4f 90 a9 bf 4c 31 27 bf
       -0.1734441 1.4050933 -1.3247164 -0.65309596
000240 03 58 50 3e 23 6f 77 3f 11 54 bb be 20 dd 00 c0
       0.20346074 0.96653956 -0.36587575 -2.0134964
000250 3d 21 60 c0 02 1e 74 3f 59 db 11 be ad 4b 07 40
       -3.5020287 0.9535829 -0.1424383 2.113994
000260 32 d0 ec 3f d0 ad 56 3f 73 54 f3 bf a2 41 a3 bf
       1.8501036 0.83858967 -1.9010147 -1.2754405
000270 5e 72 40 3c d4 f8 ba 3f 74 5b d8 3f ad 60 79 3f
       0.011746017 1.4607186 1.6902909 0.9741314
000280 26 83 32 bf 7b 04 e2 bf 52 c5 ed be 20 cd 21 40
       -0.69731367 -1.7657617 -0.46439606 2.5281448
000290 cd 82 70 bf 38 27 b5 3e 54 a5 db be 5a bb 8a 3e
       -0.93949586 0.35381484 -0.42899573 0.27096063
0002a0 e3 e6 99 bd 36 74 93 3f b4 ba a5 3f de 58 af bf
       -0.07514741 1.151984 1.2947602 -1.3698995
0002b0 2a e6 e6 3d 1c 7c 7b 3f 21 24 85 bf 72 88 8c be
       0.11274369 0.9823625 -1.0401651 -0.2744785
0002c0 b8 6e 2d bf 1f 72 ae bd 84 09 a5 be b4 36 0b c0
       -0.6774707 -0.085178606 -0.32233822 -2.1752138
0002d0 aa 63 25 3f 1c 71 30 c0 db b5 c5 be c2 0b 95 3f
       0.646052 -2.7569036 -0.38615307 1.1644213
0002e0 82 05 6f 40 72 20 25 40 31 fb cf 3f 42 f3 3e bf
       3.7347112 2.5801053 1.6248533 -0.7458993
0002f0 02 75 f4 3f 3c ca 40 3e c2 f7 85 3f 48 11 35 40
       1.9098208 0.18827146 1.0466235 2.8291798
000300 31 af 2d bf 1b 3a 2e 3f b1 3a b9 bf 21 16 32 bf
       -0.67845446 0.6805741 -1.4471036 -0.69565016
000310 f0 a6 2f 3f 6f 36 a0 bd 41 cc bf bf 10 82 81 3e
       0.686141 -0.078228824 -1.4984208 0.25294542
000320 3a 44 89 bf a6 ef 73 3e 46 7b 81 bf bb 9e 2f 3f
       -1.0723946 0.23821887 -1.0115745 0.6860158
000330 f1 7d 21 bf 07 3c b4 bf d9 27 30 bf 24 a7 00 3f
       -0.63082796 -1.4080819 -0.688108 0.50255036
000340 88 7b d7 be e4 e1 55 be c7 85 48 3f 2a 59 da 3e
       -0.42086434 -0.20886952 0.7832913 0.42646152
000350 49 90 b9 be 11 52 34 3e 97 fa 90 be a9 86 20 3c
       -0.36242893 0.17609431 -0.28316185 0.0097977305
000360 30 3e 68 40 5b 94 23 40 61 e7 32 40 d3 35 a7 bf
       3.6287956 2.55593 2.7953722 -1.3063301
000370 e5 4b df be 3e 94 3d 3f 6c cc 0e 40 08 d0 21 40
       -0.4361259 0.74054325 2.231227 2.5283222
000380 ae 72 1b bf 68 39 6b be ac 2e 8e 3e fb 34 ce 3e
       -0.6072186 -0.22971117 0.27769983 0.40274796
000390 c9 b2 60 3e 87 5e 5f be 7f 8a 17 bf d6 44 bb be
       0.21943201 -0.21813403 -0.59195703 -0.36575955
0003a0 4b 13 35 3f 67 4c 12 c0 dc 4b 20 3f e3 27 bf 3f
       0.70732564 -2.2859132 0.6261575 1.4934047
0003b0 da 38 33 3f c0 fc 3a bf c3 24 da be 52 dd ea be
       0.70008624 -0.73041916 -0.42606172 -0.4587198
0003c0 b8 f3 44 c0 ac 9e 69 40 50 24 61 3f d8 b2 8a be
       -3.0773754 3.6503096 0.87946033 -0.27089572
0003d0 12 8b 8d bf 1a 12 ba bf 65 07 cd 3f 3d 03 ce 3f
       -1.1058066 -1.4536774 1.6017882 1.6094738
0003e0 20 d7 6f 3e 79 1f 00 bf a2 b5 9a 3e bf 6c 6b be
       0.23421907 -0.50048023 0.302167 -0.22990702
0003f0 91 68 36 bf be b3 18 c0 70 02 cd bf cd 5c d9 be
       -0.71253306 -2.3859706 -1.6016369 -0.42453614

affine_output.weight f4 [1, 8]
000000 ae cc e7 bf 2a 99 dd 3f 15 01 c1 3f 6b e0 f8 bf
       -1.8109338 1.7312367 1.5078455 -1.9443487
000010 8a 37 c9 3f da d6 c7 bf e5 c6 ed bf c0 27 ff bf
       1.5720074 -1.5612442 -1.8576323 -1.9934006
