checkpoints/t2_none_toytest.model (torch, 271967 bytes, 3 tensors)

embedding_user.weight f4 [5483, 8]
000000 78 67 b1 be a7 a4 5a bf 27 65 48 3f 87 55 78 3f
       -0.34649253 -0.8540749 0.78279346 0.97005504
000010 48 3c 0e 3e c4 7b 61 be 98 8f cc 3d d7 95 a1 3d
       0.13890183 -0.22019869 0.09988326 0.07889908
000020 2f 63 e1 3f 57 f4 83 bf 70 89 ae be 8c 42 8d 3f
       1.7608393 -1.0308942 -0.34089231 1.1035933
000030 17 f3 eb be 6f b1 a6 3e 9b bd 7e bf 4d fc a7 3e
       -0.460839 0.32557246 -0.99508065 0.32809678
000040 99 8b 09 bf fa 29 33 3f 6c 4d d6 bf a7 98 50 3e
       -0.53728634 0.69985926 -1.6742377 0.20370732
000050 2a 82 7d 3f b1 0c 32 3f 3d d7 e5 bf f1 0e 38 3f
       0.9902674 0.69550616 -1.795631 0.718978
000060 8d b6 e2 be 89 f2 3a 3f 0e cf b4 bf 73 3a d1 3e
       -0.442799 0.7302633 -1.4125688 0.40864906
000070 0b ec 94 3e 77 4c 9d 3f 8b df d5 bd 85 95 47 bf
       0.29086336 1.228896 -0.10443028 -0.77962524
000080 f4 a3 4c 3f 73 3a c6 3e 81 b7 78 be 95 84 26 40
       0.7993767 0.38716468 -0.24288751 2.6018422
000090 aa 88 a5 3f 2c 94 fd 3e 48 cf 0c c0 1d 18 09 bf
       1.2932332 0.4952711 -2.2001514 -0.5355242
0000a0 83 8b 5e 3e 53 4a ec 3e 75 26 8c bf 84 1f 4b 40
       0.21732907 0.46150455 -1.0949236 3.1737986
0000b0 e8 f5 6f be 56 6c bf bd 3d fc ec be 25 3d 01 3e
       -0.2343365 -0.09346835 -0.46286193 0.12620981
0000c0 3c f5 b6 bf b6 de 98 3f d7 0c 0f c0 a3 fc 7c 3d
       -1.429359 1.1942966 -2.2351587 0.06176437
0000d0 9a 96 e3 bf ca 6c ae bc e7 ee ac bf 82 36 6b 3f
       -1.7780335 -0.021292109 -1.3510407 0.9188005
0000e0 57 e7 84 bf 55 01 6e 3e 90 ce c5 bf 17 2c b0 3f
       -1.0383099 0.23242696 -1.5453663 1.3763455
0000f0 1e cc cb bf 79 06 1a 40 26 12 18 3d 3a 9d 42 3f
       -1.5921667 2.406645 0.037126683 0.7602116
000100 c3 c1 20 40 5e 47 a2 3f 25 65 b2 3f c4 8a e3 bd
       2.5118263 1.267803 1.3937117 -0.11110452
000110 ee cd 3a 3f 53 cc 59 3f 5c b5 25 bf a9 65 25 bf
       0.72970474 0.850774 -0.6472986 -0.64608246
000120 bb b3 56 3f ab 35 8a be a2 74 1c be 31 69 fa be
       0.83867997 -0.2699407 -0.15278867 -0.4890838
000130 96 17 58 3f f2 11 34 3d 25 34 a1 3e 8d c5 91 3e
       0.8441099 0.043962426 0.31485096 0.28471032
000140 09 d9 17 bf ad 3b 0e 3f 8c c7 a7 3f 2e 75 fd 3f
       -0.59315544 0.5555981 1.3107772 1.9801385
000150 a6 26 84 3e 37 f2 8a 3f c0 ad a9 bd 4c b3 80 3e
       0.25810736 1.0855168 -0.08285093 0.25136793
000160 ce 90 84 3f 4f 8b b4 3f eb 96 ca bf cf 35 64 3f
       1.0356691 1.4105014 -1.5827307 0.89144605
000170 34 88 b2 be 0d 17 6a bf 55 b8 9d bf 31 ec 21 3f
       -0.3486954 -0.9144142 -1.2321879 0.63251024
000180 5d fe 53 bf 9c c7 12 3f be 27 13 bf 2e be 12 40
       -0.8281 0.5733583 -0.57482517 2.2928576
000190 0d 6e 8b 3d 25 87 75 bf 97 8c c6 bf a2 84 06 40
       0.068081 -0.9590934 -1.5511655 2.1018453
0001a0 7a bf f4 bd 6d 87 af 3f 8d 33 cb bf b2 5e f5 be
       -0.11950584 1.3713204 -1.5875107 -0.4792381
0001b0 42 1a 34 3f 92 2b 29 bf a7 3d d4 3d e9 de 57 bf
       0.70352566 -0.6608211 0.10363322 -0.8432451
0001c0 4f d6 bd bf 0f 53 2c bd 08 cf db bf 70 d5 bd be
       -1.4831027 -0.0420714 -1.7172556 -0.37076902
0001d0 87 67 9a 3f 12 d6 f6 3e 4e 8c 29 3f b9 4d 38 bf
       1.2062844 0.48210198 0.6622971 -0.71993595
0001e0 e9 2a 89 3e ea ff dd 3e 49 2a 42 bd 4a 1b 93 3f
       0.2679055 0.4335931 -0.047403608 1.1492703
0001f0 96 a9 8b 3f 1c 6f 87 3f 2c 90 a6 bf 5f 05 52 be
       1.0911129 1.0580783 -1.3012748 -0.20509861
000200 25 c5 05 3f 64 77 20 3f f6 c4 e0 bf 06 f7 09 40
       0.52253944 0.62682176 -1.7560108 2.155702
000210 59 87 88 3e ad 51 94 3f c4 00 6c be d1 7b 4b bf
       0.26665762 1.1587425 -0.23047167 -0.79485804
000220 26 74 9e bf 16 f6 a0 3d 4b 36 9a be ab d5 f4 3e
       -1.2379196 0.07859437 -0.30119547 0.47819266
000230 a8 ce 86 3f 76 8f 5b 3c 49 ed 60 bf b0 39 cc 3c
       1.0531816 0.013400903 -0.8786207 0.024929851
000240 8b 43 95 3e 02 b1 29 40 4f 02 fc bf 00 3e 55 3f
       0.29153094 2.6514287 -1.9688205 0.8329773
000250 48 0e 2c bf 36 0a 1d 3f 67 d7 59 be 72 a3 18 bf
       -0.6720929 0.61343706 -0.21273576 -0.596244
000260 ca e7 ce bf b9 d6 17 3f 22 67 39 bf 7e 21 5b bf
       -1.6164486 0.59312016 -0.72422993 -0.8559798
000270 46 03 44 bd 6b 47 52 bf 9a 74 bd bf 98 af a5 bf
       -0.047854684 -0.82140225 -1.4801209 -1.2944212
000280 04 f8 11 bf c3 72 b9 bf a8 4e 17 3f ad 55 10 3c
       -0.57019067 -1.4488147 0.59104395 0.008809489
000290 20 f4 6a bf 94 df 1c c0 05 00 20 bf 96 b7 d5 3e
       -0.91778755 -2.4511461 -0.6250003 0.41741627
0002a0 0e df 84 3e 40 fe 56 3f bd a0 d4 be cd 98 d0 3e
       0.25951427 0.83981705 -0.41528884 0.40741578
0002b0 1d f7 10 3e 1f 48 34 bf 2d b6 56 bf f5 07 da 3e
       0.14156766 -0.7042255 -0.8387173 0.42584196
0002c0 f6 c9 38 bc ec 26 4d bf c0 0f 09 bf 9b 12 19 3f
       -0.01127862 -0.80137515 -0.5353966 0.59794015
0002d0 c8 fd 18 bf cc 11 8c 3f ff 8e a7 bf f9 c9 d4 3b
       -0.5976224 1.0942931 -1.3090514 0.0064938036
0002e0 2c b2 1e bf b4 38 25 bf 71 98 d9 3e 39 93 e6 3e
       -0.6199062 -0.6453965 0.42499116 0.45034197
0002f0 0e 6b f7 3e 90 04 37 3e bb 85 c6 bf d5 11 23 c0
       0.48323864 0.17872834 -1.5509561 -2.5479634
000300 15 a0 64 bf a7 8b 1a bf 51 63 55 bf 6c c6 bd 3f
       -0.89306766 -0.6036934 -0.8335467 1.4826179
000310 21 5d 8a 3f 1c 06 c0 bf 60 ed 30 bd bc d6 29 bf
       1.0809671 -1.5001864 -0.04319513 -0.66343284
000320 9e 14 51 3f 14 ac 00 bf a3 f6 d8 bd 80 e6 af 3f
       0.81672084 -0.5026257 -0.10593917 1.3742218
000330 0d 8e b7 3f 88 ba 7f be 20 08 f3 3e 31 73 1a 40
       1.4340225 -0.249735 0.47467136 2.4132807
000340 c4 68 4d bf 68 90 57 3e a6 30 29 bf cd 23 ad 3f
       -0.80237985 0.2105118 -0.66089857 1.352655
000350 dd a6 53 3f 6e 67 0f bf b7 83 3b 3e cd e6 4d bf
       0.8267649 -0.56017196 0.18311964 -0.804303
000360 73 3d d9 bf 3b 4f 48 3c 6f c0 1e 3f 54 17 01 3f
       -1.6971878 0.012225921 0.6201238 0.5042622
000370 8d d3 b9 3f 13 e8 72 3f 9a 6c 99 be 71 68 4d bf
       1.4517685 0.9488537 -0.2996567 -0.8023749
000380 51 cb 5b 3e b1 8d 82 bf 2f 11 ce 3e 75 a8 b8 3d
       0.21464278 -1.0199491 0.40247485 0.09016506
000390 2a 36 20 bf dd 20 82 3f 19 29 6c 3e 65 2b 1c bf
       -0.6258265 1.0166279 0.23062553 -0.61003715
0003a0 f5 91 e1 bf 47 57 80 bf 73 c5 50 3f 65 a9 1b bf
       -1.7622668 -1.0026635 0.81551284 -0.6080535
0003b0 0a 32 7e 3f 36 b4 a2 3e a4 bd f9 bf b2 a6 02 40
       0.99295104 0.31778115 -1.9510999 2.0414243
0003c0 e9 28 44 3f df 77 da 3e f0 ac 74 3f d8 0a 2b 3f
       0.76624924 0.4266958 0.9557638 0.6681342
0003d0 16 47 c8 be 3f 7b a4 3f 7b db 27 bf 54 e5 4a 3e
       -0.39116734 1.2850112 -0.65569276 0.19814044
0003e0 90 78 1b 3e 40 64 a8 3f e5 46 1a be dc 19 5d 40
       0.1518271 1.3155594 -0.15066107 3.4547033
0003f0 b4 1c 14 40 11 64 26 3e 5c 54 49 bb 72 f7 4f 3f
       2.314252 0.1624911 -0.0030720448 0.81236947

embedding_item.weight f4 [2963, 8]
000000 41 f6 4c bf f0 b6 55 bf f0 cf c7 bf f0 0d 04 bf
       -0.80063254 -0.83482265 -1.5610332 -0.51583767
000010 7c 62 bc 3f 52 c0 6c 3e 51 45 e6 be c6 01 02 3f
       1.4717555 0.2312024 -0.4497476 0.50783956
000020 9d e5 85 c0 c0 46 ec bf 1a c7 8d 3f a3 c8 55 40
       -4.184279 -1.8459091 1.1076386 3.340371
000030 37 d9 e0 39 28 10 2c 40 08 fc 77 be 0f 21 0b c0
       0.00042886447 2.688486 -0.24217236 -2.1738927
000040 1e 66 0d be 5e 0c b6 3e 8e dd bd 3f 9b e0 88 3f
       -0.13808486 0.3555631 1.4833238 1.0693544
000050 ed 8d 9c be 8b 05 42 bf 4e 53 ad 3e 93 6b 7b be
       -0.3057703 -0.7578971 0.3385262 -0.24552755
000060 01 8a 8f 3f df 9a 9f 3f 87 1f 07 40 d2 9f e7 bf
       1.121399 1.2469138 2.1112993 -1.8095648
000070 b0 3a 9b 3e 2f 68 21 bd 9a 14 2d c0 ca fb 91 3f
       0.30318213 -0.039405998 -2.7043824 1.1404965
000080 e0 28 87 3e 28 92 d4 be 54 bd af 3f 5f 42 87 be
       0.26398373 -0.41517758 1.3729653 -0.26417825
000090 c2 0d a3 bf c3 de 20 3f af b8 2f bf 23 70 6f 3f
       -1.2738574 0.6283991 -0.6864118 0.9353048
0000a0 78 91 7b 3f 3e a6 86 3f bc 3e 71 bf bf 3a 75 bf
       0.9826884 1.0519483 -0.9423635 -0.95792764
0000b0 fc 70 35 bc 83 aa 6f bf 58 6d 4a c0 39 7f 1b c0
       -0.011074301 -0.93619555 -3.1629238 -2.42964
0000c0 36 8d f0 3f f7 88 ff bd db 25 98 3f 4a b4 a0 3f
       1.8793094 -0.12477296 1.1886553 1.255502
0000d0 bd 01 51 3f e4 58 ab bf 43 02 0d 3f 03 9f 03 3f
       0.8164328 -1.3386502 0.55081576 0.5141451
0000e0 57 b7 03 bf 2e 94 02 40 fe 1f e9 3f 3f 3e c1 bf
       -0.5145163 2.0402942 1.8212888 -1.5097121
0000f0 98 5f e8 bc b6 ed 9d 3e a5 19 11 3f a8 21 57 3f
       -0.028365895 0.30845422 0.56679755 0.8403573
000100 a8 77 a2 bf 7c 7a af be da c5 1f 3e 33 56 03 40
       -1.2692766 -0.34273136 0.15602818 2.0521362
000110 99 70 24 3e 05 ab 7b bf 92 a4 f3 3e f9 b2 3b bf
       0.16058578 -0.9830783 0.47586495 -0.73319966
000120 6e 5c 6a c0 19 ca 81 40 50 f0 46 be ac 87 fc bf
       -3.6618915 4.05592 -0.1942761 -1.9728904
000130 cc f5 29 c0 34 77 84 bf 56 9f 3d 40 db c2 06 40
       -2.6556273 -1.0348878 2.96285 2.105643
000140 a3 bb 5d 3f 21 15 93 bf 36 8a 0d bf bc ad 45 bf
       0.86614436 -1.1490823 -0.5528902 -0.7721822
000150 21 34 f9 3e fc 24 7b bf e6 e3 6b 3f f4 76 57 3d
       0.48672584 -0.9810331 0.9214462 0.052603677
000160 13 7e e3 bf 3f ae 48 bf f1 d6 35 40 41 d8 4a bd
       -1.777285 -0.7839088 2.841244 -0.049522642
000170 a0 3c 80 bf 28 dd 4b 40 36 4d b5 3d 33 52 16 c0
       -1.0018501 3.1853733 0.088526174 -2.348767
000180 94 6d 13 40 ef a1 39 be 5f ed 3f bf 60 10 14 c0
       2.303563 -0.18128179 -0.74971575 -2.3134995
000190 10 0d 84 bf f2 98 08 c0 da b2 1d c0 4e 4d ee 3f
       -1.0316486 -2.134335 -2.4640412 1.8617342
0001a0 9c f9 73 3f 20 cf 4b 3c 8a 41 94 3f ec 9b eb 3e
       0.9530275 0.012439519 1.1582501 0.46017396
0001b0 3b e0 11 3e 22 28 05 40 12 6f 9a 3f e6 54 68 be
       0.14245693 2.0805745 1.2065146 -0.22688636
0001c0 47 1a 9d 3e f9 79 45 bf 28 67 62 3f ab c8 58 bf
       0.3068411 -0.7713924 0.88438654 -0.84681195
0001d0 12 81 03 bf bb 2e 2f 3f 8b cc cf 3e b1 64 ca be
       -0.5136882 0.6843068 0.4058574 -0.39529946
0001e0 15 3b 88 bf 3d 45 ff 3f 61 fb 95 3e 04 c7 5d bf
       -1.064303 1.9943005 0.2929335 -0.866318
0001f0 fb 22 3b 40 47 9a 21 c0 98 63 85 bf ab 14 01 40
       2.92401 -2.5250413 -1.0421019 2.0168865
000200 b3 39 66 be cf b5 1f 3f 58 37 8c 3f 5a 21 f5 bd
       -0.22482948 0.6238679 1.095439 -0.11969252
000210 c3 dd 08 3e dd 3b e0 bd 85 e4 21 be cb 4e 07 3f
       0.13365845 -0.10948918 -0.1580983 0.52854604
000220 4c 17 a0 3e 01 90 55 bf 8c dd fe be 05 a5 4d 3f
       0.31267774 -0.8342286 -0.49778402 0.80329925
000230 4f f1 79 bf 85 94 be bf 6b 85 51 bf d2 6a ea bd
       -0.9763383 -1.4889075 -0.81844205 -0.114461556
000240 c0 c0 43 3f 08 0d a0 3f c6 da 88 3f ca b0 03 c0
       0.7646599 1.2503977 1.0691764 -2.0576653
000250 0e 63 55 3d 84 14 c4 3e 14 de f2 bf ff 35 44 3f
       0.05209642 0.38296902 -1.8974023 0.7664489
000260 d3 c6 09 40 07 5c 48 3f be 0a bd bf 63 84 83 be
       2.1527603 0.7826542 -1.4768903 -0.2568694
000270 61 d9 1a c0 1d 80 d7 3f a4 53 ea bf a5 54 5a 3f
       -2.4195178 1.6835972 -1.8306775 0.8528541
000280 79 c9 0b c0 5f 43 f4 bf a3 c0 e8 3e 20 42 ea 3f
       -2.184172 -1.908306 0.4545947 1.830143
000290 12 17 ae bc 4c 71 dd 3f 23 0d b7 3f 1f 03 5d 3f
       -0.021251235 1.73002 1.4300884 0.8633289
0002a0 43 cf d5 be 87 7f c1 3e e5 57 51 3f d2 49 e5 bf
       -0.4175969 0.37792608 0.8177474 -1.7913153
0002b0 a8 29 81 3e fc e6 66 3f f6 56 03 3a 33 7d 92 be
       0.25227094 0.90196204 0.00050102116 -0.28611144
0002c0 97 11 be bf cc 64 81 3e 2b df 0b 3e 5d bb a8 be
       -1.4849118 0.25272214 0.1365935 -0.32955447
0002d0 06 da 03 3f 77 6a 15 c0 52 6a ff bf 49 16 81 3f
       0.5150455 -2.334623 -1.9954321 1.0084926
0002e0 50 38 33 40 60 5a 26 40 16 2c af be 83 a1 82 be
       2.800312 2.599266 -0.34213322 -0.2551385
0002f0 9d 59 9f bd e0 33 01 bf 72 60 57 c0 3b 0f e6 3f
       -0.07780764 -0.5046978 -3.3652616 1.7973398
000300 71 8e 0d 3f 98 0e 54 bd ae ea 02 3f 58 bc 3f bf
       0.55295473 -0.05177173 0.5113934 -0.74896765
000310 8a 47 b3 3d ed e5 b6 bc c6 aa 36 3c 03 78 40 bf
       0.08753879 -0.022326434 0.011149114 -0.75183123
000320 4c 9c 0c bf 29 a5 b9 3f 6a 62 fb bf a4 64 35 3f
       -0.5492599 1.4503528 -1.9639409 0.7085669
000330 98 44 2e c0 0e ea 7c 3d f7 7a 16 3d 4a 9b 91 be
       -2.7229366 0.06174665 0.036738362 -0.2843879
000340 af aa 88 bd df 91 1b bf c4 60 ca 3e 04 3b 0e 3f
       -0.0667318 -0.60769457 0.3952695 0.555588
000350 72 13 81 bf 85 fc 50 3f 5f 18 fa 3f f9 aa 86 3f
       -1.0084059 0.81635314 1.9538687 1.0520927
000360 fa 05 80 40 a2 92 88 40 b5 75 a9 3e 4e 10 08 be
       4.0007296 4.2678995 0.33097616 -0.1328747
000370 47 e0 6f 3e d6 ac df 3f 81 6d 51 c0 36 14 4d 40
       0.23425399 1.747462 -3.2723086 3.2043586
000380 a1 6e ae 3d d6 50 8d bf 42 e0 5e bf 98 f4 99 3f
       0.085171945 -1.1040294 -0.8706094 1.2027769
000390 67 a1 03 bf b0 fc cc 3e 7c 4c 63 3e 92 ee 3a 3f
       -0.51418155 0.40036535 0.22197145 0.7302028
0003a0 b2 eb 15 3f 0e 0d 9f bf 0a 09 91 3f 7d 28 5d 3f
       0.5856277 -1.2425859 1.1330884 0.86389905
0003b0 e1 87 93 bf 30 60 c8 bd 29 12 f4 3e be 78 99 bf
       -1.1525842 -0.09783971 0.47670105 -1.1989973
0003c0 80 a9 90 c0 3d 98 67 40 bb 0e ba 3e ec 8a 08 c0
       -4.520691 3.618667 0.36339363 -2.133479
0003d0 52 ab e0 bf 7d 87 ee bf 8b de 1b 40 85 94 06 40
       -1.7552283 -1.8635098 2.435458 2.102815
0003e0 13 d1 2d 3f c0 c5 c7 be 4e 0f 8e bf da d9 2d bf
       0.67897147 -0.3901806 -1.1098421 -0.6791054
0003f0 43 c1 a5 bf 4f 32 ac bf ca 64 28 be 8c 5b 82 bf
       -1.2949604 -1.3452853 -0.16444698 -1.0184188

affine_output.weight f4 [1, 8]
000000 cc 4e e0 bf 2f 66 e1 3f 53 32 be bf b3 fd ec bf
       -1.7524047 1.7609309 -1.4859108 -1.8514923
000010 90 43 cd bf 83 48 c6 bf cc b1 07 40 e9 36 f3 bf
       -1.6036243 -1.5490879 2.1202269 -1.9001132
