checkpoints/t2_s1_toytest.model (torch, 731935 bytes, 3 tensors)

embedding_user.weight f4 [11949, 8]
0.066916086 -0.20221303 -0.43302912 -0.8312111 -0.5951492 0.29916164 1.0524564 -0.4955017
1.0523238 0.73535484 -0.098540016 -2.3487246 -0.6193585 -0.13194098 -0.9137395 -0.19337213
-0.92592233 0.9546226 0.9260185 0.3034947 0.40807804 -1.1471257 -1.0873874 2.2426636
-0.4076034 0.32908788 0.34518144 -0.22962493 -0.68320054 -0.49955782 -0.30864972 -1.4512581
-0.42416272 1.4877697 -0.5629893 0.13388458 -0.7467499 -3.0431519 1.5738165 -1.7890126
-0.91813886 1.6552573 -1.0070549 -0.56987786 -2.717258 1.1241578 -0.76378876 1.9181988
-1.8063699 0.3716242 -0.7832281 2.0455508 -1.5667771 -1.5159075 1.4186584 -0.96459603
0.9997449 -0.8817346 0.89917725 -0.56840813 0.3219597 -0.028842725 0.25714275 -0.37110943
1.074402 -0.40538907 -1.7313497 0.7020239 -0.2328533 -0.63364375 2.7662005 -1.4022623
0.25422424 -0.6743237 -0.7462228 0.78270596 0.13728558 -3.1885505 -0.17155479 0.6491821
0.5768745 0.5952261 -0.4815611 1.4202813 -0.32834968 -0.16078602 -0.098449916 1.2299309
0.21695177 1.4507983 -0.09301803 -0.12876344 0.025893768 -0.38042533 -1.0223409 -0.40211794
0.63770086 1.2026336 1.268189 0.038723975 -1.1859081 0.25663018 1.1413805 0.883763
-0.76111215 0.8203744 -0.28801334 -0.7899871 0.062007193 0.6297992 -0.8711301 1.7460191
3.595515 -0.27734098 -0.14596489 -1.6520954 0.04108115 0.5015118 1.2853011 -2.144569
-0.058827672 1.4308571 1.1462574 -0.6206896 -0.018413916 -0.40111867 -0.06465396 1.3054186
0.37268594 -0.52023643 0.49025983 0.40421385 -0.7940129 -0.8632342 1.4182324 -0.113252796
1.0315382 -0.19337007 -1.0169103 -0.6319033 -0.23158719 -0.5117457 0.16854124 0.09667456
-0.47975513 0.086014986 0.41442204 -1.6217574 -1.7553608 0.9641019 -2.2909398 1.0988572
0.25904554 -0.035006825 0.49447456 1.4037881 -1.2511991 -0.99285954 0.058702834 -0.87966245
1.9705752 -1.2546364 0.5475679 0.86818445 -0.7023157 -1.2250113 -0.5894224 0.57642674
0.046078067 1.3453609 0.16921374 1.564188 0.26116735 0.26306254 1.2192343 0.72033274
-0.75427115 0.26303458 0.08797372 0.8322745 -0.65092367 -1.5063703 -0.26020092 1.520287
0.15192796 1.1171571 -0.1274287 -0.33038688 -1.5883306 -0.79996043 0.9728119 -0.5430316
0.44789442 1.3620176 0.47280428 0.0025322482 -0.0070235897 0.28316748 0.38914734 -0.34105998
0.99673784 0.82289785 0.22955789 -0.12138629 1.5093427 -0.60131216 -0.12696925 -1.1679896
0.3255334 -0.16581383 1.5080769 -0.16952054 -0.1699506 -1.2496127 -0.6450835 -0.35098138
0.7790283 -0.8846884 0.14520493 -0.3767825 -0.7678149 -0.8893618 -1.7331043 1.6184776
-0.9826525 -0.0764983 -0.18374383 0.39425358 -0.65576315 -0.023609694 -2.389254 -0.19980343
2.6330447 -0.072120726 1.4365541 -1.9037335 -1.6990591 1.8404517 -0.6384093 2.6813648
0.92588925 0.17554367 -0.012128151 0.44498372 0.67969966 0.29750925 -0.52987736 0.99970376
0.8777031 0.4951918 1.059736 1.7696304 -0.13964143 -0.15962836 -0.12808974 0.53780836
00000000: 4d0b 893d ef10 4fbe feb5 ddbe 40ca 54bf
00000010: b35b 18bf b72b 993e e4b6 863f 66b2 fdbe
00000020: 8cb2 863f 3740 3c3f 59cf c9bd 8151 16c0
00000030: 478e 1ebf 891b 07be d5ea 69bf 5803 46be
00000040: 3f09 6dbf 2662 743f 8c0f 6d3f a863 9b3e
00000050: 9bef d03e 04d5 92bf 832f 8bbf cd87 0f40
00000060: 65b1 d0be 357e a83e 9fbb b03e cc22 6bbe
00000070: 3be6 2ebf 0bc6 ffbe 5607 9ebe d3c2 b9bf
00000080: db2b d9be 3d6f be3f 1120 10bf 0a19 093e
00000090: 002b 3fbf 00c3 42c0 d272 c93f 5dfe e4bf
000000a0: 260b 6bbf 79df d33f 2de7 80bf 84e3 11bf
000000b0: 8ee7 2dc0 67e4 8f3f a987 43bf 8a87 f53f
000000c0: 2137 e7bf 8745 be3e a381 48bf 4eea 0240
000000d0: 278c c8bf 4209 c2bf 9996 b53f c4ef 76bf
000000e0: 48ef 7f3f 5cb9 61bf 7b30 663f 3283 11bf
000000f0: e7d7 a43e 9447 ecbc 37a8 833e 0e02 bebe
00000100: 0186 893f 288f cfbe de9c ddbf d7b7 333f
00000110: 1871 6ebe 7a36 22bf 6e09 3140 557d b3bf
00000120: ae29 823e 7aa0 2cbf 7508 3fbf 6b5f 483f
00000130: 9794 0c3e 3611 4cc0 0fac 2fbe cc30 263f
00000140: 0cae 133f bd60 183f 2d8f f6be c7cb b53f
00000150: 731d a8be 17a5 24be 1ca0 c9bd 606e 9d3f
00000160: 9b28 5e3e c2b3 b93f 3d80 bebd 90da 03be
00000170: 2b1f d43c 1cc7 c2be 11dc 82bf 67e2 cdbe
00000180: 5d40 233f e6ef 993f 0454 a23f 089d 1e3d
00000190: d6cb 97bf 0865 833e c218 923f 4b3e 623f
000001a0: 3fd8 42bf 0f04 523f 7c76 93be 983c 4abf
000001b0: 41fb 7d3d 853a 213f 6202 5fbf 8e7d df3f
000001c0: eb1c 6640 a3ff 8dbe d277 15be dd77 d3bf
000001d0: b544 283d 1463 003f bf84 a43f 9e40 09c0
000001e0: 49f5 70bd 5326 b73f 90b8 923f 83e5 1ebf
000001f0: c8d8 96bc 6d5f cdbe 4c69 84bd f517 a73f
00000200: b1d0 be3e 372e 05bf 5603 fb3e 1ef5 ce3e
00000210: 6e44 4bbf ebfc 5cbf a488 b53f 15f1 e7bd
00000220: 7209 843f ce02 46be 1e2a 82bf 6ac4 21bf
00000230: 3125 6dbe c401 03bf 1396 2c3e 50fd c53d
00000240: 77a2 f5be a028 b03d 202f d43e bf95 cfbf
00000250: aaaf e0bf 62cf 763f c29e 12c0 5aa7 8c3f
00000260: 9ea1 843e 5163 0fbd c52b fd3e 54af b33f
00000270: 4b27 a0bf 0b2c 7ebf 6272 703d 8f31 61bf
00000280: cf3b fc3f ed97 a0bf 692d 0c3f 5641 5e3f
00000290: f6ca 33bf 2ccd 9cbf 63e4 16bf b490 133f
000002a0: 5bbc 3c3d c934 ac3f 5e46 2d3e 5037 c83f
000002b0: bab7 853e 22b0 863e df0f 9c3f ba67 383f
000002c0: ea17 41bf 78ac 863e 912b b43d f10f 553f
000002d0: efa2 26bf bed0 c0bf 0e39 85be c498 c23f
000002e0: 0193 1b3e 01ff 8e3f ab7c 02be 7828 a9be
000002f0: 6b4e cbbf 35ca 4cbf 330a 793f 1e04 0bbf
00000300: 6b52 e53e 9856 ae3f 6713 f23e 13f4 253b
00000310: 2426 e6bb 54fb 903e 523e c73e 6a9f aebe
00000320: 362a 7f3f 6fa9 523f 3911 6b3e 6099 f8bd
00000330: 2432 c13f 98ef 19bf 3a04 02be af80 95bf
00000340: 50ac a63e 1acb 29be aa08 c13f cb96 2dbe
00000350: 8807 2ebe 4ff3 9fbf 3124 25bf d5b3 b3be
00000360: 666e 473f f07a 62bf 9ab0 143e a3e9 c0be
00000370: 848f 44bf 37ad 63bf 5dd6 ddbf 462a cf3f
00000380: 1d8f 7bbf 24ab 9cbd 5827 3cbe 9bdb c93e
00000390: 18e0 27bf 1e69 c1bc 8ae9 18c0 4599 4cbe
000003a0: ce83 2840 08b4 93bd 01e1 b73f 8aad f3bf
000003b0: c57a d9bf ec93 eb3f cb6e 23bf 7b9b 2b40
000003c0: 1407 6d3f b8c1 333e 27b5 46bc e8d4 e33e
000003d0: cc00 2e3f 2253 983e 0ba6 07bf 96ec 7f3f
000003e0: 26b1 603f c889 fd3e 6ea5 873f 4083 e23f
000003f0: 2afe 0ebe 9e75 23be f529 03be cfad 093f

embedding_item.weight f4 [10872, 8]
-0.8707882 -1.2063882 -0.95193714 1.6686035 -0.48384333 -1.0039905 1.8421035 -1.0204556
3.420797 -2.2691007 -3.4672403 -2.8587441 -1.4070522 0.5952963 -0.86717916 1.9180698
0.82078993 -0.32835984 0.29526037 0.39498684 0.14189611 -0.3665094 -0.41149694 -0.49885508
-1.1360406 1.9821048 -0.39679 -1.3321666 -1.8319833 3.0713751 -0.5813767 -0.56610537
1.434333 -0.77242893 -0.26739264 2.8219578 0.83172745 1.4866188 1.5733782 -0.5751608
0.2455471 1.9985616 0.79643494 -1.1569164 -3.6524296 1.5450032 -2.2845838 -2.2412658
1.5531999 -1.4206992 -2.6674483 1.7144988 0.63180894 -0.8843382 0.20298819 -0.95155627
0.25166193 0.39339364 1.3067074 -2.0738106 -1.3343585 0.9646809 -0.8965303 -0.95293957
0.3384869 -2.512189 -0.6653258 -0.59153605 0.16964592 -1.2990261 -0.05663582 1.7812045
-1.7449598 -1.1875817 3.4422014 3.406507 2.3854969 1.4762269 0.40656605 -1.5586237
-0.83136785 -0.309908 -0.32673034 1.8793197 1.6058977 -1.924862 -0.56623554 0.16101569
0.2754804 2.587741 2.3096788 1.3326604 -0.7861383 -1.2179374 2.7741582 1.0144466
-1.6888958 2.5070393 -0.46484172 0.63626385 -0.2097783 1.2244948 0.084471874 -1.300242
1.0689939 -0.51648754 0.37522048 0.099511065 1.6299869 0.12718625 0.272048 -1.2087554
-0.4340579 -0.40616536 0.44483742 -0.31368628 -0.49320886 0.25692984 -0.48550597 0.37310752
0.2786992 -0.22877152 1.6219894 2.2671633 2.2050467 0.6836432 -1.2114077 -3.0986474
0.73015195 -0.18777868 0.42048848 0.05879271 0.15984212 0.3914079 -0.35774636 0.06283395
-1.2678276 -0.9475666 -1.7095753 -0.8807504 0.36602718 -0.6428234 2.655448 3.5402267
0.765386 0.8598187 -1.208075 -0.602842 -1.627302 2.6635716 -0.83473235 0.6878433
0.49192908 -0.31923082 1.5551916 0.82728356 0.018322088 3.34242 3.945914 -1.9760712
-0.56449884 -2.0435042 0.9230218 -0.08830667 1.4044548 0.7645537 1.2711865 1.0321321
-1.444793 1.2018203 -0.41283652 -0.6320611 1.0110832 0.040561758 0.72833157 -0.13692634
-0.12390614 -0.24613157 1.4599774 1.0597748 1.1146982 -0.056232553 -1.4615035 -2.3836966
-1.1144015 -1.4529674 -3.0963292 1.2313197 -2.5720868 2.3442655 -0.2679503 -1.3736432
1.2812638 1.9286702 0.4565918 -0.48632425 1.4416339 -3.8456333 0.12938194 -0.70217323
0.84678084 2.131951 -0.08393705 1.7303966 0.1444746 1.0298102 -0.45426732 1.4297639
1.1358968 -0.63185155 1.5006616 -0.6163391 1.3996722 -0.3351021 -0.99790585 1.1361426
-0.9591802 -3.3420973 -2.2004957 -0.56236464 -3.2468035 3.2186565 -0.0785118 -0.85043496
0.28568602 -1.6113969 0.101646915 -1.8293667 1.1366212 -1.7468634 -1.7487339 -0.010272774
0.89661884 -0.5399922 0.52223504 0.049663544 -0.49653426 -1.2880579 0.19009298 -0.640514
-1.0191379 -0.19862455 3.4777968 2.6877985 1.8532693 1.0333929 0.36289713 -1.8422958
-0.5678484 -0.07032041 0.61012805 0.7568696 1.2754627 -0.003774792 0.06465988 0.64279866
00000000: faeb 5ebf ee6a 9abf 27b2 73bf cd94 d53f
00000010: 50ba f7be c382 80bf 0cca eb3f 4a9e 82bf
00000020: 57ee 5a40 f238 11c0 44e7 5dc0 aaf5 36c0
00000030: 491a b4bf 5765 183f 74ff 5dbf 5083 f53f
00000040: 4a1f 523f c81e a8be 5e2c 973e b73b ca3e
00000050: 374d 113e 1fa7 bbbe baaf d2be ef69 ffbe
00000060: c769 91bf 9cb5 fd3f 0f28 cbbe 6f84 aabf
00000070: 6e7e eabf 6991 4440 1ad5 14bf 48ec 10bf
00000080: 3998 b73f e7bd 45bf b0e7 88be f59a 3440
00000090: 17ec 543f 8649 be3f 7564 c93f bd3d 13bf
000000a0: b370 7b3e ded0 ff3f 29e3 4b3f d615 94bf
000000b0: 68c1 69c0 aac2 c53f 9f36 12c0 e670 0fc0
000000c0: 41cf c63f 79d9 b5bf 79b7 2ac0 b274 db3f
000000d0: 3bbe 213f fd63 62bf 23dc 4f3e 3199 73bf
000000e0: d5d9 803e e46a c93e 3042 a73f 50b9 04c0
000000f0: 42cc aabf 54f5 763f 0283 65bf d9f3 73bf
00000100: 284e ad3e b4c7 20c0 cb52 2abf e86e 17bf
00000110: a9b7 2d3e 7d46 a6bf f6fa 67bd 82fe e33f
00000120: d85a dfbf ad02 98bf 074d 5c40 3604 5a40
00000130: fbab 1840 01f5 bc3f 6d29 d03e fb80 c7bf
00000140: 86d4 54bf 43ac 9ebe 3349 a7be 8c8d f03f
00000150: 0e8e cd3f e161 f6bf d0f4 10bf 4ce1 243e
00000160: c40b 8d3e 8c9d 2540 c7d1 1340 9e94 aa3f
00000170: 5c40 49bf 5fe5 9bbf cf8b 3140 63d9 813f
00000180: bd2d d8bf 5573 2040 bcff edbe 30e2 223f
00000190: 1fd0 56be 3fbc 9c3f 97ff ac3d 546e a6bf
000001a0: cbd4 883f 8738 04bf e61c c03e 75cc cb3d
000001b0: 69a3 d03f 1d3d 023e e049 8b3e 7fb8 9abf
000001c0: d63c debe e8f4 cfbe bbc1 e33e 7d9b a0be
000001d0: df85 fcbe 4f8c 833e 3d94 f8be f307 bf3e
000001e0: a9b1 8e3e 1543 6abe 599d cf3f 3419 1140
000001f0: 7c1f 0d40 3e03 2f3f 680f 9bbf 3d50 46c0
00000200: 3deb 3a3f 0e49 40be 444a d73e a0d0 703d
00000210: a7ad 233e 9e66 c83e 882a b7be 16af 803d
00000220: 2d48 a2bf ba93 72bf 5dd3 dabf dc78 61bf
00000230: ea67 bb3e 1390 24bf dcf2 2940 1393 6240
00000240: 56f0 433f 141d 5c3f 34a2 9abf da53 1abf
00000250: 6f4b d0bf f577 2a40 05b1 55bf 8016 303f
00000260: 21de fb3e 3972 a3be 8510 c73f dbc8 533f
00000270: 3418 963c 36ea 5540 db89 7c40 e7ef fcbf
00000280: ff82 10bf c6c8 02c0 284b 6c3f 21da b4bd
00000290: 2dc5 b33f cbb9 433f 3db6 a23f e81c 843f
000002a0: faee b8bf 3fd5 993f 4f5f d3be c2ce 21bf
000002b0: 2d6b 813f 1624 263d f073 3a3f 6b36 0cbe
000002c0: 81c2 fdbd ea09 7cbe 8ae0 ba3f b3a6 873f
000002d0: 6eae 8e3f 1b54 66bd 8c12 bbbf 7c8e 18c0
000002e0: b5a4 8ebf d6fa b9bf 422a 46c0 e29b 9d3f
000002f0: 129d 24c0 7208 1640 c830 89be 8ad3 afbf
00000300: 7400 a43f aade f63f 67c6 e93e 7eff f8be
00000310: 7687 b83f db1e 76c0 b37c 043e a0c1 33bf
00000320: a1c6 583f e371 0840 30e7 abbd a37d dd3f
00000330: 26f1 133e d2d0 833f ba95 e8be 8102 b73f
00000340: 1165 913f 06c1 21bf ae15 c03f 66c8 1dbf
00000350: 7528 b33f 8192 abbe c276 7fbf 1f6d 913f
00000360: d58c 75bf ece4 55c0 ecd4 0cc0 21f7 0fbf
00000370: a1cb 4fc0 78fe 4d40 cbca a0bd 1bb6 59bf
00000380: 7045 923e 4142 cebf 422c d03d b028 eabf
00000390: ce7c 913f 3899 dfbf 83d6 dfbf 234f 28bc
000003a0: d088 653f ee3c 0abf 32b1 053f 006c 4b3d
000003b0: bd39 febe 15df a4bf bca7 423e baf8 23bf
000003c0: 1c73 82bf 3c64 4bbe 3994 5e40 e404 2c40
000003d0: ee37 ed3f 3846 843f a7cd b93e 59d0 ebbf
000003e0: 835e 11bf 2604 90bd 5a31 1c3f 35c2 413f
000003f0: 5d42 a33f 8062 77bb 666c 843d 748e 243f

affine_output.weight f4 [1, 8]
-2.559505 2.1349194 2.367039 2.3782363 2.6494637 -2.4260771 2.2822554 -2.2810082
00000000: eece 23c0 85a2 0840 917d 1740 0635 1840
00000010: d090 2940 d944 1bc0 7910 1240 0afc 11c0
