checkpoints/t2_s1_toytest.model (torch, 731935 bytes, 3 tensors)

embedding_user.weight f4 [11949, 8]
000000 71 25 2a bf d5 5e 72 3e df 91 cd 3c 49 81 c2 bf
       -0.6646338 0.23668988 0.02509397 -1.5195705
000010 7c b4 18 bf b0 b7 7e 3f 3d f1 6a 3f eb 94 07 3f
       -0.596504 0.99499035 0.9177435 0.52961606
000020 8d ad 21 3f bd d7 73 3f 2f 1c ac 3f f7 fa d8 bf
       0.6315544 0.95251065 1.3446101 -1.6951588
000030 7f 31 a3 bf 8e 75 35 be 06 83 81 3f 53 ad 93 bf
       -1.274948 -0.17720625 1.011811 -1.1537269
000040 16 56 90 be e9 2e d3 3e 6c 1d 96 3f c7 40 13 3f
       -0.28190678 0.41246727 1.1727729 0.5752072
000050 ba 51 ed be 96 eb e5 3e 58 0e e2 bf 5d 98 7e 3f
       -0.46351415 0.449063 -1.7660627 0.9945124
000060 27 bf ff 3e b6 2d 12 c0 e5 9b d4 3e 39 8e 66 3d
       0.49950525 -2.28404 0.41525188 0.056287978
000070 b0 57 49 be 2a cf 91 3f eb 9d ad bf 38 25 79 3f
       -0.19662356 1.1391346 -1.3563818 0.97322416
000080 f1 5d 5d bf ad 32 fd 3f e9 42 c3 bf ee dc b2 bf
       -0.8647147 1.978109 -1.5254794 -1.3973672
000090 56 36 d7 bf 12 ce 19 40 e7 b8 8f bf 7d 65 46 be
       -1.6813457 2.4032025 -1.1228303 -0.19374652
0000a0 b7 c1 bb bf 9d 6f e8 3e be 8d 8b bf 03 75 83 bf
       -1.4668492 0.45397654 -1.0902631 -1.0270084
0000b0 f1 4f 3a bf aa 07 59 40 65 76 55 3f 5f 1b 30 3f
       -0.7277823 3.3910928 0.8338378 0.68791765
0000c0 04 38 93 bf 56 b2 a0 3f 78 06 4d 3e d5 47 15 3f
       -1.150147 1.2554424 0.20021999 0.5831273
0000d0 24 b2 46 3f 69 b1 57 3e 1d a0 1e 3f f6 d7 a5 bc
       0.7761557 0.2106377 0.61963063 -0.02024458
0000e0 ff c1 4b bf 1d 2a 91 3f 58 e6 7e 3f 67 97 5f 3f
       -0.7959289 1.1340977 0.99570227 0.87340397
0000f0 d9 f3 84 be 0f 13 a0 40 36 ea 9f 3f c4 8e 91 3f
       -0.2596729 5.0023265 1.249335 1.1371694
000100 60 ff c3 bd 2d 0e bc be 0e 09 41 bf d5 f7 75 3f
       -0.09570193 -0.36729565 -0.7540444 0.96081287
000110 30 b9 a8 bf 8e 6c 6b be e2 64 88 3f 28 da 78 bf
       -1.3181515 -0.22990629 1.0655787 -0.9720788
000120 64 8e 30 40 dd c3 5d bf e4 b1 68 3e c6 f6 4f bf
       2.7586908 -0.8662699 0.2272411 -0.8123592
000130 fd 42 c9 3f 86 c2 49 3e 19 ea 0c c0 a7 ea 7a 3f
       1.5723568 0.19703111 -2.2017882 0.980143
000140 6f 77 9f 3f 6a 53 45 3f f1 75 07 3e e8 96 29 3e
       1.2458323 0.77080405 0.13228585 0.16561472
000150 b3 1b 92 be 78 99 4d bf b1 0e 9c 3e eb 36 97 3f
       -0.28536758 -0.803123 0.3047996 1.1813635
000160 86 96 09 bf 24 dd 7f 3f 3e 77 6a 3e 41 98 b4 bd
       -0.53745306 0.9994681 0.2289705 -0.08818103
000170 66 7d ae bf 07 b7 f3 3d e5 7c 03 3f 0c f2 3f 3f
       -1.3632019 0.11900144 0.5136245 0.7497871
000180 4a c0 3f 3f 63 cd 62 3e d8 6a 94 bf 43 0b f9 bf
       0.74902785 0.22148661 -1.1595106 -1.9456562
000190 86 2e a7 bf 4a 40 92 3f 21 80 92 be cf 1d 6c 3f
       -1.3061073 1.142587 -0.2861338 0.92232984
0001a0 2e 50 5c 3f 80 3b e5 3c 33 3a 8a 3f ef a5 fc bf
       0.86059844 0.027982473 1.0799011 -1.9738139
0001b0 de f6 bc 3d d7 29 55 c0 11 0f 43 c0 ed 6e 81 3f
       0.09226774 -3.3306787 -3.0477946 1.0111977
0001c0 c9 6a c7 3f 50 01 4f 3f 18 87 b8 3f 20 b1 86 3f
       1.5579463 0.8086138 1.4416227 1.0522804
0001d0 e9 67 a4 bf 4b 6e 29 c0 91 2d b2 3f 17 06 a1 bf
       -1.2844211 -2.6473567 1.3920156 -1.2579983
0001e0 03 c8 28 bf fc 0d 56 3f 12 32 4d bf 87 0b 54 bf
       -0.65930194 0.8361509 -0.80154526 -0.8283009
0001f0 77 c7 b8 bf be 24 ea 3f 3d e6 23 bf 7d 2e 8f 3f
       -1.4435872 1.8292463 -0.6402319 1.1186062
000200 1d 3e 2b 3f be e3 2a bf 13 69 5a 3f b8 4d 33 bf
       0.6689165 -0.66753757 0.8531658 -0.70040464
000210 77 04 f7 be e6 1c 9f bf a9 2c bc bf 29 e3 ed bd
       -0.48245594 -1.2430694 -1.4701129 -0.11615593
000220 23 75 61 3f 0f 7c a2 be 13 22 cd be 84 c7 4b be
       0.8806936 -0.31735274 -0.4006506 -0.19900328
000230 92 76 0f bf d8 c6 67 be 20 7b 3d bf 91 8a 3f 3f
       -0.560403 -0.22634447 -0.74016 0.7482081
000240 58 dc 5d bf 48 5e 39 bf e9 e0 96 bf dc be d7 3d
       -0.8666434 -0.72409487 -1.1787387 0.105344504
000250 97 9a 2e c0 4d ee 4a 3f 6f 64 80 3e d3 d3 6c 3f
       -2.7281854 0.7926987 0.25076625 0.9251072
000260 84 9e 0c 3f 42 b8 c2 bd cc c2 4d 3f dc c4 18 3f
       0.54929376 -0.09507801 0.8037536 0.59675384
000270 6f 27 8a be 71 5a 0b 3f 57 27 3c 3d 2d 51 9a 3f
       -0.2698321 0.5443488 0.045935955 1.2056023
000280 c7 13 85 3f 0a f2 15 3f db 50 9d bf 4b ac 09 bf
       1.039666 0.5857245 -1.22903 -0.53778523
000290 69 5f 07 40 c4 17 cf 3f bb 2e 51 bf 76 d8 94 3f
       2.1151984 1.6179128 -0.8171193 1.1628559
0002a0 4d d7 7f 3f b5 99 8d bd 12 ef 4d bf 21 55 30 3f
       0.999379 -0.06914083 -0.8044292 0.68879896
0002b0 e3 6a 76 bf c2 64 dc 3f f6 26 2b bf c9 c8 00 3f
       -0.96256846 1.7218249 -0.66856325 0.50306374
0002c0 ba d6 ce be 9f 2b 47 3f 84 d6 6f 3f ed 65 85 bf
       -0.40398198 0.77800936 0.936867 -1.042173
0002d0 fa 4d cb 3e 1c 4c ab 3f c7 dd 18 3f cc 34 49 3f
       0.3970793 1.3382602 0.59713405 0.78596187
0002e0 93 73 86 3f d9 b8 37 3e 50 ec 2b be 21 98 83 bf
       1.050402 0.17941608 -0.16789365 -1.0280801
0002f0 23 89 99 bf 8d 21 2d 3c 4f 72 5b bf e5 78 ad 3d
       -1.1994976 0.010567081 -0.85721296 0.084703244
000300 b5 96 a6 3e bc a0 6a 3f e8 fa ff 3e f6 3f 03 3f
       0.32536855 0.9165151 0.49996114 0.5126947
000310 0d bc 19 3f 2f 09 fb 3d 91 f4 86 3e bb 6c 0c 3f
       0.6005257 0.12257611 0.26358464 0.5485341
000320 01 ca 78 3e 54 17 df 3f 84 6f 41 bf 00 48 bf bf
       0.24295808 1.7428994 -0.75560784 -1.4943848
000330 19 61 ae be 23 eb 46 40 e4 38 29 c0 5c eb 43 3f
       -0.34058455 3.1081016 -2.6440973 0.76531005
000340 4e 95 83 3f 01 13 23 3e 9d 38 43 3f 95 e1 20 bc
       1.0279939 0.15925218 0.7625826 -0.009819408
000350 69 d5 24 3f e8 a4 b1 3e db 7f ed 3e 9c 4f 52 be
       0.6438814 0.34696126 0.46386608 -0.20538181
000360 bd 6a c7 3f 10 b4 6d 3e d1 4e ca 3e 9a b3 c6 bf
       1.5579449 0.2321322 0.39513257 -1.552356
000370 78 55 ff bf 31 a7 3a 3e fd 9b 59 c0 e4 84 a8 bd
       -1.9947958 0.18227841 -3.4001458 -0.08228472
000380 fd 44 90 bf fe c9 47 3d b1 f6 32 3f 3d 7c 3b 3f
       -1.1271054 0.04877662 0.6990767 0.7323645
000390 59 2a 3a c0 1d e7 1c bd c5 6f 3e be 8e d1 13 3e
       -2.9088347 -0.038306344 -0.18597324 0.14435408
0003a0 16 b5 f7 3f f1 a9 68 3f 29 5f 6c 3f 6d e2 e5 3c
       1.9352138 0.9088431 0.923327 0.02806207
0003b0 e3 2f af 3e 07 80 14 3f 30 5d a2 3f 41 94 05 40
       0.34216222 0.58007854 1.2684689 2.0871737
0003c0 68 2c c9 3e f2 e0 2b 3f 66 19 d5 3c f6 6b 86 3f
       0.39291692 0.67140114 0.026013087 1.0501697
0003d0 63 52 02 bd 1f 74 a8 be 8b 6f 05 bf c7 36 ff 3d
       -0.03181685 -0.32901093 -0.52123326 0.1246162
0003e0 db dd 09 40 f4 01 ee 3f ca 96 18 40 e8 12 c7 3f
       2.154166 1.8594346 2.3842034 1.5552645
0003f0 16 2c c4 bf 4d 6f 53 bf e6 e1 a4 3e 30 c3 a0 bf
       -1.5325954 -0.82591707 0.32203597 -1.2559566

embedding_item.weight f4 [10872, 8]
000000 3c a0 ed be 98 4c a4 3e 78 b2 18 bf 68 af 21 3f
       -0.46411312 0.32089686 -0.5964732 0.63158274
000010 19 d0 7a 3f 30 40 32 3f bf 5e 0b 3f 42 be a2 be
       0.9797378 0.6962919 0.54441446 -0.3178578
000020 9a 77 38 40 45 c8 f3 bf f1 fd a5 3e 45 a0 25 c0
       2.8823 -1.9045492 0.32420304 -2.587907
000030 35 ed ec 3f a5 36 f8 3f b4 e6 8e 3f f9 ee 52 40
       1.850989 1.9391676 1.1164155 3.2958357
000040 05 4f e2 3f 8c cb b6 3e 43 e1 cf 3e 5f 02 6b be
       1.7680365 0.3570217 0.4060155 -0.22950123
000050 8e 3a 90 bd 27 4d 81 be 2e 2e 4d bf cd 30 25 3f
       -0.070424184 -0.25254175 -0.8014859 0.6452759
000060 ee 29 fa bf 52 3c 85 3f 78 83 8e 3f b9 30 50 bf
       -1.9544046 1.0409033 1.1133871 -0.81324345
000070 21 88 f1 3e 89 2c cd 3f 2c 26 03 c0 bf e3 bd be
       0.4717417 1.6029216 -2.0492048 -0.3708782
000080 87 22 ab 3f 34 8f f5 3d ee 6e 59 3e e6 3d bd 3f
       1.3369912 0.119902045 0.21233723 1.4784515
000090 b9 e1 ec 3f 56 bf 7d 3f d6 8e a7 3f b2 74 0a c0
       1.8506385 0.9912008 1.3090465 -2.1633725
0000a0 17 20 ad be 2d e6 b4 3f 00 e1 89 3f 83 73 e0 bf
       -0.33813545 1.4132744 1.077179 -1.7535251
0000b0 f7 44 2e 3f 5e b3 35 3d dc bd a0 bf ee f6 fa bf
       0.6807398 0.04436051 -1.255794 -1.9606607
0000c0 b0 77 23 3e c3 98 e1 3f 81 e1 a1 bf b7 6d a1 3f
       0.15963626 1.7624744 -1.2646943 1.2611607
0000d0 52 27 c7 bf 4c 28 e5 bf ae e6 63 bf de a0 a7 3d
       -1.5558875 -1.7902923 -0.89023864 0.0818498
0000e0 14 a3 9e be f2 91 c5 3f 39 57 bc 3f 32 a4 76 bf
       -0.30983794 1.5435164 1.4714118 -0.9634429
0000f0 9f 48 c6 3e 22 cc ee be d9 e8 93 3f 6d 44 15 c0
       0.3872728 -0.46640116 1.1555434 -2.3323014
000100 f5 87 55 3f 71 f4 d9 be 0d c9 19 bf 17 ed a0 3f
       0.8341058 -0.42569306 -0.60072404 1.2572354
000110 e7 c4 2c 3e 53 15 1d 3e 19 0d 56 3f fb 4a e2 3f
       0.16871987 0.15340166 0.83613735 1.7679132
000120 b5 78 80 c0 d4 70 cf bf e2 e1 53 40 a8 00 42 40
       -4.0147347 -1.6206307 3.3106618 3.03129
000130 53 83 84 3f 34 90 c5 bf 35 33 23 be 27 a2 a3 bf
       1.0352577 -1.5434632 -0.15937503 -1.278386
000140 5a ac 71 bf b1 27 14 be df 9c ab 3d 3d f6 68 40
       -0.9440361 -0.14468266 0.0837953 3.6400292
000150 5b e7 a7 3f 75 11 aa bf a7 16 f6 3f 63 b5 3e 3f
       1.3117479 -1.3286577 1.9225663 0.74495524
000160 1e 89 33 bf 87 f5 0a 3f 91 ae 2f 3d c4 2a ad 3f
       -0.701311 0.54280895 0.04289109 1.3528676
000170 a6 27 0e 40 53 59 2d 3f 88 c1 c6 3f c0 7c 3e 3f
       2.22117 0.6771442 1.5527811 0.74409103
000180 f7 44 05 3e 99 16 4c 40 09 16 47 3e 2d c4 13 bf
       0.13014589 3.1888793 0.19442 -0.57721215
000190 40 31 2c 40 76 b7 aa 3f 94 05 ff 3f 42 54 da bf
       2.690506 1.3337238 1.9923577 -1.7056963
0001a0 40 a7 a1 3d 3e 0b 06 3f a8 23 8c 3f 89 97 d5 3c
       0.078932285 0.52360904 1.0948381 0.026073234
0001b0 08 5d 42 bf 51 46 cd be f2 c9 50 3e 03 50 f1 be
       -0.75923204 -0.4009271 0.20389536 -0.47131357
0001c0 7d 8c 56 bf 53 c9 58 bf 2b 77 4b 3f 03 bc 10 3e
       -0.8380812 -0.84682196 0.7947871 0.14134221
0001d0 0e 01 66 3f 9c fb 07 bf 8d 14 f5 be a4 4e f5 3e
       0.8984536 -0.531183 -0.47867242 0.4791156
0001e0 e8 43 db 3f 4e 4e bb bb b4 95 b6 3f 48 54 7f bf
       1.7130098 -0.0057161218 1.4264436 -0.9973798
0001f0 ae 24 a6 3f 9b d4 c6 be 97 fa 16 40 b5 8c e7 bf
       1.2979944 -0.3883408 2.3590448 -1.8089815
000200 b7 04 f7 3e 99 c0 07 c0 44 36 b4 3e 3b 8b 8b be
       0.48245785 -2.1211302 0.3519765 -0.27254662
000210 b8 9c 2c 3e 2b f5 06 bf ce bf 87 3b b3 a7 87 bf
       0.16856658 -0.52717847 0.004142738 -1.0598053
000220 ea aa d1 bf c7 c7 3a c0 9d a7 83 be 87 ad ff be
       -1.6380284 -2.9184434 -0.25713816 -0.49937078
000230 50 ec c4 be aa cd e2 bf 52 cb a3 bf 25 b6 8e 3f
       -0.38461542 -1.7719014 -1.2796423 1.1149336
000240 ad cf 61 3f 41 2a 30 3e 39 dc 48 bf f0 27 34 c0
       0.88207513 0.17203619 -0.78461033 -2.8149376
000250 57 80 c0 3c d0 65 85 40 0c 4f 93 c0 68 bf c5 3f
       0.023498697 4.1686783 -4.6033993 1.5449038
000260 1b ae 67 3d 1e 3e 73 3f fa 8f 26 40 cc b7 dd 3e
       0.056562524 0.9501666 2.6025376 0.43304288
000270 c0 29 06 40 00 be 31 3e 64 52 93 be bd 61 0a c0
       2.0962982 0.17357635 -0.28773797 -2.1622155
000280 76 51 85 3f 3d 40 3c bf a4 bd 3c bf 77 11 ae 3e
       1.0415485 -0.7353552 -0.7372687 0.339977
000290 a0 17 ac bf 0a 17 9e 3e 02 c8 02 be f9 ba 18 3f
       -1.344471 0.30876952 -0.1277161 0.596603
0002a0 ca a5 14 bf 2f c5 62 3f 0d ce 52 bf 1c 8d 14 3f
       -0.58065474 0.8858213 -0.8234566 0.58027816
0002b0 f7 ca d8 3e 99 db 81 3e 3c cf 4f 3e 72 60 57 bf
       0.4234235 0.25362852 0.20293897 -0.8413154
0002c0 6a 91 5e 3f 07 e5 08 3f da b6 e5 3f 97 91 78 bf
       0.86940634 0.5347447 1.7946427 -0.9709715
0002d0 35 35 af 3f a1 a0 56 bf 46 cd 0a 40 ef 1d 86 bf
       1.3688112 -0.8383885 2.168779 -1.0477885
0002e0 c7 08 1c c0 ba cb ae bf 18 2e a6 bd fc a8 b0 bf
       -2.4380357 -1.3655922 -0.081142604 -1.380157
0002f0 bc 12 ef 3f e1 38 7b bf c3 b3 09 c0 be 6f e2 3e
       1.8677592 -0.98133665 -2.1515968 0.44225878
000300 92 8d ad 3e 28 c2 22 3f 39 c4 f0 be 68 23 ae 3e
       0.33897072 0.6357751 -0.47024706 0.34011388
000310 25 3d 8c bf e7 5f b9 bf 3c 04 2e bf 98 53 b5 3e
       -1.095616 -1.4482392 -0.6797521 0.3541534
000320 c0 0d a8 3f ef 11 71 3f 91 d7 07 c0 3f f5 0e 40
       1.3129196 0.9416799 -2.1225321 2.2337186
000330 78 8b 24 be 13 b6 78 3f 4c 13 7e bf 3f 32 93 3f
       -0.16068828 0.97152823 -0.99248195 1.1499709
000340 a2 ad 08 3d d8 ec bf bf 1b 98 0a 3f 6b b7 33 3f
       0.033368714 -1.4994154 0.54138345 0.7020175
000350 d5 9e 9a bf 93 57 de 3c 44 0a 9a 3f b7 fe 8a 3f
       -1.2079722 0.027141368 1.2034383 1.0858983
000360 e2 26 3a c0 6f d6 df bf 12 cd 6f bf 32 00 53 bf
       -2.9086232 -1.7487315 -0.9367229 -0.82422173
000370 19 29 c5 3f 1b 5d cb be df 98 3f c0 51 fc 6a 3f
       1.5403167 -0.3971947 -2.9937055 0.91791254
000380 f3 2b 27 3f 16 ef 07 bf a3 49 af 3e cc a8 9e 3e
       0.65301436 -0.5309919 0.34235868 0.30988157
000390 6d 31 dd 3e 7e 89 61 bf 65 e8 a5 be 8d 60 71 3f
       0.4320177 -0.8810042 -0.32403865 0.9428795
0003a0 c0 f1 2e bf 81 0c f0 be 7f d4 65 be ee 2f 19 bf
       -0.6833763 -0.4688454 -0.22444342 -0.5983876
0003b0 30 40 5b bf 30 c3 ea 3c 25 7c a1 3e 35 bd a4 bd
       -0.8564482 0.028657526 0.31540027 -0.08043901
0003c0 47 fa 3a c0 00 52 dd bf 6d 50 84 40 07 e5 23 40
       -2.9215257 -1.729065 4.1348176 2.5608537
0003d0 1f 4a 33 3f 62 17 47 bf f8 6c ae 3f 72 0e 55 c0
       0.70034975 -0.77770054 1.3627005 -3.3290067
0003e0 03 f8 ba bd 8a 8c 85 3f c3 d2 36 3d 22 cc 5b 3f
       -0.09129336 1.0433514 0.04463459 0.85858357
0003f0 33 bc c0 be f9 61 cb be 2c b7 d7 39 79 24 3f 3e
       -0.37643585 -0.39723185 0.0004114447 0.18666257

affine_output.weight f4 [1, 8]
000000 26 00 1b c0 d6 11 0f 40 58 8e 10 40 f4 ce 12 40
       -2.421884 2.2354636 2.258688 2.2938814
000010 7c 89 22 c0 2f 9e 18 40 a1 b7 08 40 f1 ef 0c c0
       -2.5396414 2.3846548 2.1362078 -2.2021449
